p2_continuous-control/saved/checkpoint_critic.pth (torch_old, 169951 bytes, 5 tensors)

fc1.weight f4 [256, 33]
00000000: c684 15bd 88c0 2f3d cad5 ca3c d564 8cbd
00000010: 1259 2f3c c9b3 f2bd 88b2 653d 6aba 3cbd
00000020: a2e0 0a3c 4ab2 aaba 7ce7 39bd 6b21 493d
00000030: 8295 0bbd d3ca 123d d838 ed3c 7e32 28bd
00000040: 3827 a33c c539 87bd b794 b2bc 944f 173d
00000050: d26c cebc 4a6a 1b3d f0fa 603c 711c ae3d
00000060: 5a93 5dbd 9f56 563b 61dc 6abc af01 84ba
00000070: 218e 6ebd 806a 4ebd 9999 76bd be99 253d
00000080: 13d2 a53d 8717 423c 292c afbd 2b63 c73c
00000090: e6ef 88bb e2ba ba3c ef6a fd3c 065c 013d
000000a0: 4cb8 6fbd 1cbc 22bd 4ce0 1bbd 90ce e13c
000000b0: 143c 053d 5eb8 6b3d 41ee 333d 21e4 cd3d
000000c0: 35e2 6b3d a94a 133d 6e12 843d d339 253d
000000d0: 3ce8 27bc 09ec a43c f362 40bc ad54 403b
000000e0: 184a 143c 67bb c7bb d61f 7f3d cacb adbc
000000f0: 36df 61bd 02ca da3d 30f6 a33c 014f 283d
00000100: a09a 9d3b ffc2 95bd e070 033c 0b0b afbc
00000110: 2a1a 323c 6171 663d e7fb 8b3d b140 163d
00000120: 543c 83bd f336 03bd 7901 4fbd 2a55 e4ba
00000130: 804d bd3b 00d9 423b 1252 123b 8a1e 913c
00000140: 0d49 273d 4d5f 89bd 3e02 df3c 4ee8 f0bc
00000150: 402f c6bb 1377 a3bd 00cf 87ba 9f91 df3c
00000160: 9094 62bc aa39 59bc 1634 023d 9f3b 8cbd
00000170: d9df af3d cab2 c93c 8dac 81bd 402e 51bb
00000180: fa3e 2e3d 1e99 5ebd 3dcf 63bc 90b1 d43d
00000190: 82c5 5f3d 3884 013d 2fe0 0f3d 4c76 82bc
000001a0: 9811 b23d 4630 723c 03b4 89bd 8dbc 94bc
000001b0: dccf 94bd a875 2c3d 830a 8e3d 9903 29ba
000001c0: 9eea 15bd 35cd 303d 8993 4bbd 7aa5 ccbd
000001d0: 7bcd 0b3d 2ea1 e0bc 8b67 acbb cdb2 85bc
000001e0: c694 c43b 02a4 56bc 22ca 1cbd fa7f adbc
000001f0: fb6f 033d 2296 2c3d a5ce 533d c536 8fbc
00000200: b8a0 cabc c795 513d 80c6 33bc 5356 b63d
00000210: 4635 e1ba 592a cfbc 0dc9 c73c 4b21 1cbd
00000220: 229a 97bd 7785 113d bac0 a93d c522 473d
00000230: 9aa0 32bc 9f12 713c 7021 49bd 1745 5c3d
00000240: b2dd 56bb a660 1dbc aabb 8d3c 1412 fbbc
00000250: e440 6cbd a9a6 a9bd ee3a 20bd 61f5 8e3c
00000260: 60b6 013c 53cb a13c 6b19 a23d 4544 363d
00000270: b95e 643b 288d 293d eaec 0f3d 17b7 b23c
00000280: 8178 67bd 58d9 923c 3561 f0bc 94a1 883c
00000290: a936 0bbe 5032 9dbd cea9 3d3d cd2c 35bd
000002a0: c6c7 8abc 6fd8 b0bd e85c 3bbd 652e 103d
000002b0: ec10 193d aad2 10bd b223 54bc 1625 6e3c
000002c0: 967c 63bc 20da 01bd b63b 183e 5b2c 72bd
000002d0: 2a78 94bc d7fc 7a3d f20a 053c d5ea 733b
000002e0: 9c72 4cbb 791a ffbc 1a30 b4bc ebf8 e6bb
000002f0: 4fe8 423d ad97 1cbc b36e a2bc d78b 96bd
00000300: 1198 193d 66c9 2fbc a41a 443d 7c24 09bd
00000310: c880 193c 1315 853e 57cc 1fbd b857 6abc
00000320: ff22 2cbd e586 1bbd 3ba8 71bc 12be 763d
00000330: f185 013d aebe ffbb dbc9 31bd ce94 55bd
00000340: 1a22 f5ba d5c4 11bd bc89 c9bc 5afe 763d
00000350: c9bd e5bd c84c 91bc 7f76 cb3d 553d 0bbc
00000360: ed10 173d 60bc 8d3d a4f8 efb9 5a4d 42bc
00000370: bb84 03bd bcdc f93b 5b0f 233c a37a 453b
00000380: 0998 04bd f6f8 da3d 7814 083d 6481 43bd
00000390: 0733 08be 809d be3a a256 cb39 c013 1abd
000003a0: 6876 c53c 7aba 4c3c 5bd6 8cbb cbf1 84bd
000003b0: b18f f5bd 5682 e43b bf4f 5d3c 1725 953c
000003c0: 6e47 953d 38f8 eebc f80d 003e a3e9 42bd
000003d0: 22ea aa3c a5d7 bf3c 361c b9bd bd18 2f3d
000003e0: b187 bbbd 6410 923b 1f08 b1bd 50d1 b2bd
000003f0: ccac 5abd 7efa 9f3d 2ac5 cfbc 5d40 5fbd
-0.036503576 0.04290822 0.024760146 -0.0685517 0.010702388 -0.118506975 0.056078464 -0.046076216
0.008476408 -0.0013023105 -0.045386776 0.049104135 -0.03407813 0.03583796 0.02895777 -0.041063778
0.019916162 -0.066028155 -0.021799428 0.036941126 -0.025198374 0.037943162 0.013731703 0.085015185
-0.054095604 0.0032705439 -0.014334769 -0.0010071303 -0.058241013 -0.050394535 -0.060205076 0.040429823
0.08096709 0.01184643 -0.08553345 0.02433928 -0.0041789887 0.02279419 0.030934779 0.0315819
-0.05852537 -0.039730176 -0.038055703 0.027564317 0.032527998 0.057548873 0.04392839 0.10053278
0.057588775 0.035959873 0.06448828 0.04033835 -0.01024824 0.020132082 -0.011742341 0.0029347346
0.009050868 -0.006095338 0.06228622 -0.021215338 -0.05514451 0.10683061 0.020014852 0.04109097
0.0048096925 -0.07312583 0.008022517 -0.02136757 0.010870496 0.05626047 0.06835156 0.03668279
-0.06407991 -0.032034826 -0.050538514 -0.00174204 0.005777061 0.0029731393 0.002232675 0.017714757
0.04084115 -0.0670763 0.027222749 -0.029407647 -0.006048113 -0.07981696 -0.0010361373 0.027291117
-0.013829365 -0.013258377 0.031787954 -0.06847309 0.085876174 0.024621386 -0.063317396 -0.0031918436
0.042540528 -0.054345243 -0.01390439 0.1038543 0.054631718 0.031620234 0.035125908 -0.015925549
0.08694762 0.014782017 -0.06723788 -0.018156314 -0.072662085 0.042104393 0.06935599 -0.00064473745
-0.0366007 0.04316445 -0.049701247 -0.099925 0.03413151 -0.027420606 -0.0052613667 -0.01632061
0.0059991805 -0.013100626 -0.038278706 -0.021179188 0.032089215 0.042135365 0.051710743 -0.01748217
-0.02473484 0.05116823 -0.010972619 0.08903184 -0.0017182014 -0.025288748 0.02438786 -0.03811769
-0.074024454 0.035527673 0.08288713 0.048617143 -0.010902548 0.014713912 -0.049104154 0.053776827
-0.003278595 -0.009605562 0.0173014 -0.030648269 -0.057679072 -0.08283741 -0.0391187 0.01745099
0.007917017 0.019750273 0.07915004 0.0444987 0.0034846498 0.041394383 0.03513805 0.02181582
-0.056511406 0.017925903 -0.029343227 0.016678609 -0.1359507 -0.07675612 0.046304516 -0.04423218
-0.016940963 -0.086350314 -0.0457429 0.035200495 0.037369654 -0.035357155 -0.012947964 0.014535209
-0.013884684 -0.03170216 0.14866528 -0.059124332 -0.018123705 0.061276283 0.008120285 0.0037218828
-0.0031196242 -0.031140553 -0.021995593 -0.0070487163 0.047584828 -0.009557647 -0.019828176 -0.07350891
0.037498537 -0.0107291695 0.04787697 -0.03348206 0.009369083 0.2599264 -0.039013233 -0.01430314
-0.042025562 -0.037970442 -0.014749582 0.06023986 0.031621877 -0.007804713 -0.043405395 -0.052143864
-0.001870218 -0.035588104 -0.02460181 0.060301162 -0.11217839 -0.017736807 0.09934711 -0.008498509
0.036881376 0.06920695 -0.00045770884 -0.011859262 -0.032109004 0.0076251905 0.0099523915 0.0030132912
-0.032371555 0.10692017 0.033222646 -0.04773082 -0.13300715 0.0014542788 0.00038783724 -0.03761649
0.024104312 0.012495631 -0.004298014 -0.06491431 -0.119902976 0.006973545 0.0135077825 0.018206162
0.07289015 -0.029171094 0.12505329 -0.047586095 0.020863596 0.023418257 -0.09038584 0.0427482
-0.091567405 0.0044575203 -0.08644127 -0.087313294 -0.05338745 0.078114495 -0.02536257 -0.05450474

fc1.bias f4 [256]
00000000: 14e7 133d 3c1f 233e 87c5 f1bc 56cf 153e
00000010: 4589 8f3b 824c 37be 32aa 72be 7ff0 20be
00000020: e021 49bc fdd0 253e 0fbf fdbd 270d 53bd
00000030: 8bc0 803d 54f2 a0bd 0d0b 9a3c 68e2 f03c
00000040: 50e0 dabc 873c 0dbe 3a2d 393e 0d1e d3bd
00000050: 7135 4f3c c24d 583d 965b c83b 2ad8 c53c
00000060: c378 adbd 6163 a7bd 30c5 8c3d 9a2d b7bd
00000070: 6a34 423c 0ff5 d33c 116e f6bb adcb 97bd
00000080: 9b88 1bbe cdee c5bd 6e3e 9f3d 1ac3 103d
00000090: a3b0 4c3e 921d a63d 6c15 cebd 57b9 aa3d
000000a0: 98f2 c6bd 2e3e 9dbd c807 dd3d 3329 09be
000000b0: b2ac 1ebd 5e9f 2bbe cebe c33d 7653 e43d
000000c0: 70f4 8e3d 12d8 bbbd a299 c9bd 0784 f03c
000000d0: 6e31 6ebd 2c03 8abd 236f debd 4000 8f3d
000000e0: f730 b53c 97f1 d2bc d8b6 5a3d d6c6 993d
000000f0: eb88 c7bd 519a 033e cc3b 40be 06e3 a73c
00000100: fb26 d3bd 6855 88bd 7f7e 2b3d 22a7 df3d
00000110: bae7 933d b5d4 cebb e785 af3d fa30 c03d
00000120: 6f4a e539 8529 12be 8169 273d 4bbe 273e
00000130: 2039 083e cbeb b0bb 4738 c33d 3f81 ffbd
00000140: 7b50 653c a020 413e 640b 1abd 05ff d13d
00000150: 324e d03d 547c 12be 387b 0d3e de69 8e3d
00000160: b17d d13d b90b dc3d 8b5f 303e 35c0 b4bb
00000170: 41cc 003e 458f 51be 638d 62be d879 13bc
00000180: 7000 283e b861 afbd e638 ac3d 34cc 81bd
00000190: 24cd 603d 0866 01bd 544b 713b e8c2 a3bd
000001a0: 4c8e 0ebe 186d a93d cf36 38bd 69c2 2c3e
000001b0: 9034 053d 461b 9abd 52e1 273e 5c3a 433e
000001c0: 5b57 cdbd 8b55 643d fc40 d83d 95ad 08be
000001d0: c445 c5bd 7ecd 1cbe ebd5 6c3d 4efc 29be
000001e0: 386e 0c3e f8e6 d03c 72f3 0f3e 4770 373a
000001f0: 1bcf 95bd 279d ac3d 8099 d73d 6758 aa3d
00000200: 5dab 0bbd bf12 2e3e f662 2bbe 4dc8 2bbe
00000210: 09c2 443d bbbf 3a3e ddb0 30bc 5155 debc
00000220: f29e 0abe 419a d23d 3e67 3abe f30a e3bd
00000230: 0d8e a03d a12c b3bd 3f96 37be d052 d5bd
00000240: 256c e23d cae3 09be 210f b6bc 6594 97bd
00000250: 3b77 043e b8b2 c83d 183b a53d 848c eb3b
00000260: 14f2 00bd 5671 ea3d 9f1b 263e d8cc 273d
00000270: 445e fd3d e34d 87bd 54f7 f7bb 0bc3 36be
00000280: 6420 f13a a5be e2bd d307 79bd 67f4 6ebe
00000290: 19f6 d2bb 9955 593c 349f 2c3e 2eed 11bd
000002a0: 1045 2539 6498 973d 61d1 c8bc 95fa 1a3e
000002b0: 6305 373e 47b6 333e 9e39 063d 9005 303d
000002c0: 79fe 153e c203 dbba de0e 343e c914 01be
000002d0: cea1 05bd ad29 2b3d 16a7 21be 954e b0bd
000002e0: cadb 533d f424 52bc e288 e9bc f29f 12bd
000002f0: b479 b73a f840 0c3e e1de d2bd 1abf 023e
00000300: e2db ab3c 65c6 173e 8ea9 323e 6b05 45bd
00000310: 4f29 9ebd 80bb 52bd 8fa9 5dbd be98 ffbd
00000320: 547c 02be c2fb ea3d 2e50 8f3d 4e66 88bd
00000330: f9ac 9e3d 7235 2f3d 4ef3 69bd 0f39 943d
00000340: 4bde eabd 764c 83bd 1ba1 373e a7dc a03d
00000350: a9fd 153e fd53 033d 775c e7bc ac4a dd3d
00000360: 38db 0e3d dd92 223d 4e3e ba3c 5e75 8c3d
00000370: fa3f 993d c87e c8bd 7d99 f2bd f3c6 30be
00000380: 9f63 6c3d fcf7 e8bd 028f 21be dd86 403d
00000390: 072b 78bd 481d 6c3c f723 98bc d8e7 a03d
000003a0: 1d87 0dbe a24a 4fbe bb08 a43d a159 7abd
000003b0: 0c24 0c3d 7e00 7f3d 3df1 10bd 0e8b 14be
000003c0: 01af 953c dbbc 1cbe 52c4 793d ca15 f83b
000003d0: 0e6d 303e 8174 b13d ef72 c83d 24b7 ba3d
000003e0: 4f52 323d 2391 9abd 2338 0c3e 2ace babd
000003f0: c3bc b23d e95f 5bbd 2a28 013e 96a6 a23d
0.036109045 0.15929884 -0.029513134 0.14629874 0.0043803775 -0.17900279 -0.23697737 -0.15716742
-0.012276143 0.16193004 -0.12389957 -0.051526215 0.06286725 -0.078587204 0.018804098 0.029404834
-0.026718289 -0.1379262 0.18083659 -0.10308466 0.012647019 0.05280853 0.0061144335 0.024150927
-0.08470299 -0.08173252 0.06873548 -0.08944245 0.011853317 0.025873689 -0.007520445 -0.07411895
-0.1518883 -0.09664688 0.077755794 0.035342313 0.19989257 0.08111109 -0.1006268 0.08336132
-0.0971424 -0.076778755 0.107925 -0.13394623 -0.038738914 -0.16760013 0.095578775 0.111487314
0.069802165 -0.091720715 -0.09843756 0.02935983 -0.05815261 -0.06738886 -0.108610414 0.069824696
0.022118075 -0.025749965 0.05339703 0.07508628 -0.09742912 0.12851836 -0.1877281 0.020493995
-0.10310169 -0.06656915 0.041868683 0.1092055 0.07221933 -0.0063119777 0.08570462 0.093843415
0.0004373374 -0.14273651 0.0408721 0.16381185 0.13303041 -0.0053992025 0.095322184 -0.124758236
0.013996239 0.18860102 -0.03760852 0.10253719 0.101711646 -0.1430524 0.13816535 0.06953786
0.10229052 0.107444234 0.17223947 -0.005516077 0.12577917 -0.20464809 -0.22124247 -0.009001218
0.16406417 -0.0856356 0.0840929 -0.06337777 0.054883137 -0.031591445 0.003681858 -0.0799616
-0.1392147 0.08272761 -0.044974145 0.16871037 0.03252083 -0.07524733 0.16394547 0.19065231
-0.10026427 0.055745643 0.1055927 -0.13347466 -0.09632447 -0.15312764 0.057821196 -0.16600153
0.1371392 0.02550076 0.14057711 0.00069976266 -0.07314893 0.08428412 0.10527325 0.08317643
-0.03409897 0.16999339 -0.1673697 -0.16775627 0.04803661 0.18237202 -0.010784355 -0.027140291
-0.13537195 0.10283328 -0.18203446 -0.11086073 0.07839594 -0.08748747 -0.17928408 -0.10416186
0.11055783 -0.13465801 -0.02222401 -0.07401351 0.12936108 0.09799713 0.08067912 0.0071883816
-0.031480864 0.11447398 0.16221474 0.04096684 0.12371495 -0.066066526 -0.0075673256 -0.1784784
0.0018396494 -0.11071519 -0.060798477 -0.2333542 -0.0064380285 0.013265037 0.16857606 -0.035626583
0.00015761354 0.07402113 -0.024513902 0.15134652 0.17873149 0.17550002 0.03276979 0.042974055
0.14647855 -0.0016709494 0.17583796 -0.12605585 -0.032625012 0.041787792 -0.15786394 -0.08608738
0.05172328 -0.012826193 -0.028507654 -0.035797067 0.0013998062 0.13696659 -0.10296417 0.12768212
0.020978872 0.14821775 0.17447492 -0.04810087 -0.07722723 -0.051448345 -0.05411678 -0.12480305
-0.1274274 0.114738 0.06997715 -0.06660138 0.07747836 0.04277558 -0.0571168 0.072374456
-0.1146818 -0.06411068 0.1793255 0.07854586 0.14647545 0.03206252 -0.028242333 0.10805258
0.034877032 0.03969084 0.022734787 0.068583235 0.07482906 -0.097898066 -0.11845682 -0.17263393
0.057712194 -0.11375424 -0.1577721 0.047003616 -0.06058791 0.014411278 -0.018571837 0.07856721
-0.13821073 -0.20243314 0.08009478 -0.061120633 0.034214064 0.06225633 -0.035386313 -0.1450617
0.018271925 -0.15306418 0.06097824 0.007570957 0.17229101 0.086647995 0.09787547 0.091169626
0.043535527 -0.07547214 0.1369329 -0.09121354 0.0872741 -0.053558264 0.12612978 0.0794193

fc2.weight f4 [128, 260]
00000000: 29b7 0e3d 7c38 ab3b e04a fd3d 28cb 95bc
00000010: b673 c43d 6067 d2bd 8860 29be cf0e 923d
00000020: a059 60bd d3c9 a3bd 2378 c63d 8905 d23b
00000030: b098 2a3c d240 873d ee70 66bd b241 043d
00000040: b8a7 fab9 c948 29bd 2233 c53c 38f5 d63d
00000050: 2a81 533d 8543 f73b 7cb9 513c 0a8d a8bd
00000060: f8f9 953d 11c7 c9bb 7b7a 913c 0be2 3fbd
00000070: a902 c73d ecb0 b1bc da2e 353d a110 6d3d
00000080: f143 043d 93c2 debd fa6a 813d 2ea1 30bd
00000090: ae33 d33c 2723 37bd 126b 653d fdaf ecbc
000000a0: d634 61bd 6c63 f23c f26e 37bd a1cd 77bb
000000b0: 704c a53c 7be6 9c3c d8cc 313d 2aab 1c3b
000000c0: 30a3 a5bd 83e1 1b3c c862 163d e3e2 f3bb
000000d0: a7c7 d13c 9863 9ebd 968e e43d db4c cdbd
000000e0: 6c54 c4bd 54ae b93d 9506 71bd 827f a43d
000000f0: 556d 683d d2db a03d c0cb 83bd 6e3a f63c
00000100: 5dab a8bc e632 c93d 4bd4 983c f46d a03d
00000110: aad2 0eba 2e97 d9bd 21d9 b0bd c935 a7bd
00000120: bc57 5e3d 50ed 5d3d b93a 35bd f291 023d
00000130: aa2c 79bb 767f a03d 66fc 843d 8e4f d8bc
00000140: 571d 18bd 4e88 ebbc 8262 59bd 552e 8a3c
00000150: e2de 52bc 66aa 393d a543 423c cd84 46bc
00000160: 98a2 86bd fc4b 80bd d7bb fe3d 1c60 17be
00000170: 3239 923d 43fd 20be 8841 65bd 7ae2 783c
00000180: 4ed9 243d a20f 793d 51a5 fd3a e52d 9f3d
00000190: 36f3 2cbc 3965 aabd 27fc 0c3b eef7 1a3b
000001a0: ccea 93bd b84f c13d 7d87 8f3d 3730 bd3d
000001b0: c3a2 c13d 719c c93c 156f 0abd 6f8d c33d
000001c0: be71 963c 457c f4bc 229c 813c 6fda e7bd
000001d0: 26c6 3bbe 7ab2 91bd e7d4 873b f197 613c
000001e0: 995f 443c 4790 89bc 78de 17bd b873 6bbe
000001f0: 85d0 573d 8c9b f73a ba53 bf3d c615 213d
00000200: b652 0c3d 5e85 eb3d 40df e0bd bd72 b73d
00000210: 3996 cb3d ad23 abbd 94bd d5bd 0daf dd3d
00000220: e23a 3b3d c04d 6d3c b352 41bc 9958 bf3d
00000230: bed8 203c 9c44 17bd b264 b1bd 8f7c 80bd
00000240: 0d30 ac3d d121 1fbd bdd5 aabd c932 44bc
00000250: b421 86bc 07a4 94bc 35aa 02bd ca0f 103c
00000260: b551 9f3b 8f42 8c3d 7dc9 fa3d d924 fc3a
00000270: a13a e1bb 5495 e93c c887 c33c 474a 5d3d
00000280: 0b00 88bd 4ec9 cc3d 2d0e 3abc d1ae ca3d
00000290: dc8d 283c c876 54bd 9132 2b3d 2b47 893d
000002a0: 17e8 813d 9e2b 45bd c34a 623d 564e 14be
000002b0: 11e2 80bc eb32 1ebc dac6 823d 20d8 eabc
000002c0: b7b6 86bc 45f8 1fbd fd30 c23c 199a 16bd
000002d0: b03d adbd ba4b d53c b6ac 3ebd 5998 5d3d
000002e0: 8cb8 c6bc 6b3a aebb 08f2 4ebd f7eb 07bd
000002f0: f421 963d 56b1 693d 9ede 08bd e659 bfbb
00000300: e611 9fbd c0d9 f03d ab16 903b 1ee9 d13c
00000310: 412a 553d ebc1 a2bd 25c6 8d3d b341 3b3d
00000320: 538f f4bd eb97 4e3d d016 a1bb 78cf 34bd
00000330: ac2f 3ebb fa21 ee3c 8ef1 963c 9aa9 083d
00000340: f640 48bd 7a54 99bc b91d 803d 8c12 603d
00000350: e584 a93d 6efb 6d3b 6942 dabc 0e82 ebbd
00000360: aba5 e83b d522 bbba 9d23 3cbd 7f59 3ebb
00000370: 054c 363c 4945 9d3d 5ec3 b9bd 6542 71be
00000380: 7f69 163d d5ad 79bd c786 b4bd e2c0 803d
00000390: c331 03be 404e 3c3c 5200 923d d248 8f3c
000003a0: f967 febc bfc3 18bc 6f85 e03b a376 b1bd
000003b0: 2799 423d 68a6 0fbd 94ff 66be fb6f 483d
000003c0: 388f aabd 935e d93d 2bc7 13bd 4b89 34bd
000003d0: cb1e fd3d abe0 e7bb 101f 87bd acee 22bc
000003e0: 4842 4e3c 262f bb3d 24fa 24bc b03e 843d
000003f0: a596 8c3d 8555 ba3c 8262 7c3b d260 96bd
0.034842644 0.0052252393 0.12367797 -0.018285349 0.095923826 -0.102736235 -0.1654073 0.07131731
-0.054772973 -0.07997479 0.09690883 0.0064093512 0.01041238 0.0660416 -0.056260042 0.032289214
-0.00047808676 -0.04132918 0.024072234 0.104959905 0.051636852 0.0075458908 0.012800571 -0.08230026
0.073230684 -0.006157764 0.017758599 -0.04684643 0.09717304 -0.021690808 0.044234134 0.057877187
0.032291356 -0.10876956 0.06319232 -0.043122463 0.025781479 -0.04471126 0.056010313 -0.028892512
-0.05498203 0.029588424 -0.04478354 -0.0037811773 0.02017805 0.01915287 0.043408245 0.0023905733
-0.08087766 0.009514215 0.0367153 -0.0074428185 0.025607897 -0.0773384 0.111600086 -0.10024425
-0.09586415 0.090664536 -0.058844168 0.08032133 0.056744892 0.078544274 -0.064353466 0.030057158
-0.020589525 0.09824161 0.018655917 0.07833472 -0.00054482615 -0.10624538 -0.08635164 -0.081645556
0.05428289 0.054181397 -0.044245455 0.031877466 -0.0038021007 0.07836811 0.06493454 -0.026405122
-0.037137356 -0.028751519 -0.05307246 0.016867796 -0.012870522 0.04532852 0.011856948 -0.012116623
-0.06573981 -0.06264493 0.12438171 -0.14782757 0.071398154 -0.15721612 -0.0559707 0.015190715
0.0402463 0.060805924 0.0019351636 0.077724256 -0.010556033 -0.08320088 0.00215126 0.0023646313
-0.07222518 0.09439033 0.07008264 0.09237712 0.094548725 0.02461073 -0.033797342 0.09548461
0.018364783 -0.029844413 0.01582152 -0.1132096 -0.18337306 -0.0711412 0.004145253 0.013769136
0.011985683 -0.01679243 -0.037077397 -0.22993362 0.052689094 0.0018890961 0.093421414 0.039327405
0.034258567 0.11500047 -0.109800816 0.089574315 0.09940762 -0.08356414 -0.1043655 0.10824404
0.045710452 0.014483869 -0.011799502 0.093430705 0.0098173 -0.036930665 -0.08661784 -0.06273758
0.084076025 -0.03885061 -0.083415486 -0.011974999 -0.016373493 -0.01814462 -0.031900603 0.008792827
0.004862035 0.068486325 0.12245462 0.0019237056 -0.006873444 0.028513588 0.023868456 0.054025915
-0.06640633 0.09999333 -0.011355919 0.09896625 0.010287728 -0.05187109 0.04179627 0.06703027
0.06343096 -0.0481373 0.05524708 -0.14483008 -0.015732797 -0.0096556945 0.06385584 -0.02866751
-0.016444547 -0.039055128 0.023705 -0.036768053 -0.084590316 0.026037086 -0.04655143 0.05410037
-0.02425792 -0.0053170226 -0.050523788 -0.033184018 0.07330695 0.057053886 -0.03341543 -0.005839574
-0.07767086 0.117602825 0.0043972335 0.025623854 0.05204225 -0.07947143 0.06922559 0.045716953
-0.119413994 0.05043785 -0.0049160495 -0.04414317 -0.0029020114 0.029068936 0.01842573 0.03336487
-0.048890077 -0.01871704 0.06255669 0.054705188 0.08277301 0.0036313194 -0.026642995 -0.11499415
0.0070998273 -0.0014277349 -0.0459324 -0.0029045043 0.011126523 0.07679231 -0.090704665 -0.23560484
0.036721703 -0.060956795 -0.08814769 0.062867895 -0.12811951 0.011493266 0.07128967 0.017490778
-0.031055437 -0.009324013 0.006851844 -0.08665206 0.04750934 -0.035070807 -0.22558433 0.048934918
-0.08328098 0.10613742 -0.036078613 -0.044076245 0.12359389 -0.007076343 -0.065977216 -0.009944599
0.012589045 0.09139852 -0.010069404 0.06457269 0.06864671 0.022745857 0.0038510864 -0.07342686

fc2.bias f4 [128]
00000000: 2d41 183d 9f6c aebb a05a a23d fc0f 2fbd
00000010: 27df 593d 541b 873d c9b1 d3bd 1c42 103d
00000020: 10ac 6a3d 798e db3b 0564 06bd 36c6 b23d
00000030: a08f c5bc 03e6 bdbd 15ca 1bbd 97af 91bd
00000040: fc1a 363c 900f 5cbd 3142 d33c 427e 8a3d
00000050: 3ecc c93d d8f8 cd3d 248e 58bd f9f3 12bd
00000060: 7002 d03d d20c f73b 5bac de3d 2b67 2dbd
00000070: 526d 71bb b7cd 563c 854b e23d 865d 153d
00000080: d926 503d 7bcb 8ebd fd83 213d aaff 033a
00000090: b730 cf3d 4a41 4e3d b651 f73d 7d75 d43c
000000a0: 44e2 9e3d 1360 86bc fcc1 cc3c 15c6 bbbd
000000b0: 7022 44bd 0a75 663c fade 8f3d 21f1 dbbc
000000c0: aa78 b43d 7115 5d3c f4b8 98bd eb15 a5bd
000000d0: 83b5 d3bc 0288 4cbd a611 8fbc 6f6b a7bd
000000e0: f12a 8d3d e652 30bc 7bdd dabc 1c83 a1bc
000000f0: d18f b0bd e9a8 943d 9342 ea3d 327d c63d
00000100: 03e0 78bc 9529 c6bc 6407 833c 779d 9b3d
00000110: af41 c4bb 4d95 033e d779 d63c 76e2 83bc
00000120: 8f0c 9b3d 0524 2e3d 3e16 a5bd 8e9e c53d
00000130: 2b1a 453d d591 92bd 19dd 9abb 3274 ea3c
00000140: c965 ae3d cded b13d bd00 52bd 6ba0 49bd
00000150: 0889 e33c b9bd c13d 8ae3 88bc 9839 d63c
00000160: 7861 a83d c836 fb3d d830 ef3d 276f a83d
00000170: 4811 22bd c85e 7c3d f8d3 c73b e843 92bd
00000180: 94aa afbd d1bd 03bd 8a51 123e 6c2c 433d
00000190: 9501 cdbd d031 b5bc 1f88 63bd 6c8c c73d
000001a0: 8f24 a9ba 93d1 8a3c 0e26 503c 3feb aabd
000001b0: 99bd 263d d395 dc3d fd55 8a3d 5a14 bcbb
000001c0: 4e71 bdbc e015 4cbd 38a7 ae3c ba6c 1fbd
000001d0: aad6 00bc dcc2 30bb 353b 4bba ff7d 73bd
000001e0: e097 5bbd 9ca0 b03d 9c83 153b d0a8 3b3d
000001f0: a40c 943c c76a b6bd 6321 93bd 7280 883c
0.03717153 -0.0053230072 0.079274416 -0.042739853 0.05319133 0.06597009 -0.10336644 0.035219297
0.057292998 0.0067003337 -0.03281023 0.08729212 -0.024116337 -0.09272387 -0.038034517 -0.07113569
0.011114832 -0.05372578 0.025788398 0.06762363 0.09853409 0.10057229 -0.05286993 -0.0358772
0.10156715 0.00753937 0.10872718 -0.042334717 -0.0036838842 0.01311057 0.110495605 0.036466144
0.050818298 -0.069724046 0.039432514 0.00050353503 0.101167135 0.050355233 0.12076132 0.025934929
0.077580005 -0.016403234 0.024994843 -0.091686405 -0.047884405 0.01406599 0.07024951 -0.026848378
0.08812077 0.013493882 -0.07457152 -0.08060821 -0.025843387 -0.049934395 -0.01746447 -0.08174788
0.06892956 -0.010761952 -0.026716938 -0.019715838 -0.08621181 0.072587796 0.11438479 0.09691848
-0.015190127 -0.02418975 0.015994735 0.075983934 -0.0059892754 0.12849922 0.026181145 -0.016099196
0.07570755 0.04251482 -0.08060883 0.096493825 0.04812066 -0.071567215 -0.004726064 0.02861986
0.08515508 0.08687935 -0.051270235 -0.049225252 0.027775303 0.09460015 -0.016710062 0.02615051
0.08221716 0.12266308 0.11679238 0.082243256 -0.039567262 0.061613828 0.0060982667 -0.07141858
-0.08577457 -0.032163445 0.14288917 0.047649786 -0.100100674 -0.022118479 -0.055549737 0.0974358
-0.0012904572 0.016945636 0.012704385 -0.08345651 0.04070816 0.10770764 0.06754682 -0.005739731
-0.023125317 -0.04982555 0.02131997 -0.03892205 -0.00786368 -0.0026971614 -0.0007752658 -0.05944633
-0.053611636 0.08624384 0.002281404 0.04581529 0.018072434 -0.08907085 -0.071841024 0.01666281

fc3.weight f4 [1, 128]
00000000: 28bc 853d 6a86 00be 7810 673d 267f e6bd
00000010: e780 183e 941a 623d 6335 7dbe 27ae 523e
00000020: 59c9 4b3d 4d79 68bd 2160 a4bd 8acd af3d
00000030: 868d a0bd a32a 13be 5d84 163e 4948 17be
00000040: 4a71 1bbe ce26 c9bd cc24 153d dbfd 9b3d
00000050: 46f4 383d 619c 5d3e ca1c abbd f714 ebbc
00000060: 0dc7 933d 317d 41be fbd4 313e b6ad bebd
00000070: 444b 82bd ee7d c13d 6831 6b3d 4037 2abe
00000080: e03a 983d 45b8 cabd 5d86 a13d 3642 183e
00000090: 4849 823d 1760 823e f6ce 063d 6b96 15be
000000a0: f7ba 673d 2fd2 6ebe b601 f53d 509d b4bd
000000b0: 35f2 6dbd ce75 5ebe f82f b83d ab76 ddbd
000000c0: 766c 4b3d b4f1 28be 35c5 19be f1f9 70bd
000000d0: fc07 81be e42c 23be d4e4 70be 20ed 15be
000000e0: a55e 643d 57f3 2fbe f9bf 91bd 216f 82be
000000f0: 1086 5dbe 7663 963d 8fcf 503d 2226 583d
00000100: 5a22 88be d2f3 03be d18c c6bd b5f9 363d
00000110: 9237 4dbd 9a44 133e c3c7 16bd 2c25 313e
00000120: 73a4 e23d fcd6 403d f06d 8cbd f168 9b3d
00000130: a89b ef3c e514 d0bd 9dfa a93d 125c a23d
00000140: 9aa3 573d 1679 723d 3940 52be 60f1 15be
00000150: 79c5 413d c967 ed3c 01ec aebd 2bdd 72bd
00000160: e34d 653d 3a13 603d 0fd1 c53d 9ddf 863d
00000170: f94b 3ebe 0449 033e 6212 603d e238 25be
00000180: e157 8ebd 73e7 84bd 1c36 913d 44c4 803d
00000190: 2425 94bd 8fcf fdbd a418 bfbd 6121 3e3d
000001a0: 1825 5b3d 001c 25be eea8 f03d 4a57 3fbd
000001b0: ce35 583d a064 813d 9337 363d e3f0 89be
000001c0: 0a74 21be e381 83bd 3aff afbd 7c4e ccbd
000001d0: bf07 4bbd 6d90 0b3e de33 563d a77d 64bd
000001e0: ddcc 37be 4c83 a33d 5293 bdbd da1a 5b3d
000001f0: 944f c83d 2915 d5bd 5612 00be e3c0 d8bd
0.065300286 -0.12551275 0.05641219 -0.112547204 0.14892922 0.055201128 -0.24727397 0.20574246
0.049752567 -0.056756306 -0.08026148 0.08584125 -0.078394935 -0.14371733 0.1469893 -0.14773668
-0.15179935 -0.098218545 0.036412045 0.076167785 0.045154832 0.21641685 -0.083551005 -0.02869652
0.072157 -0.18895413 0.17366402 -0.093104765 -0.06362012 0.09447847 0.057420164 -0.16622639
0.074331045 -0.09898428 0.07886956 0.14869007 0.063616335 0.25463936 0.032912217 -0.14608161
0.056574788 -0.23322366 0.11963217 -0.088190675 -0.058092315 -0.21724626 0.08993524 -0.1081365
0.049663983 -0.16498452 -0.15016635 -0.058832113 -0.25201404 -0.15935093 -0.23524791 -0.14641237
0.055754323 -0.1718267 -0.07116694 -0.2547541 -0.21633172 0.073431894 0.050979193 0.05277074
-0.26588708 -0.12885979 -0.09694827 0.044671733 -0.050101824 0.14381638 -0.0368116 0.17299336
0.110665224 0.047080025 -0.068569064 0.07588375 0.029249027 -0.10160235 0.08299754 0.07927717
0.052646257 0.059197508 -0.20532311 -0.14642859 0.047307465 0.028980153 -0.08541108 -0.059292953
0.05598248 0.054705836 0.096590154 0.065856196 -0.18583669 0.12820822 0.05470503 -0.1613498
-0.06950355 -0.06489458 0.07090399 0.06287435 -0.072336465 -0.12393104 -0.09330872 0.04641855
0.053502172 -0.16123962 0.11750971 -0.046714105 0.052785687 0.06318021 0.044486593 -0.26941594
-0.15766922 -0.06421258 -0.085936025 -0.09975907 -0.049567934 0.13629313 0.05229556 -0.055783894
-0.17949243 0.07984027 -0.09256615 0.053492405 0.09780803 -0.104044266 -0.12506995 -0.10583665
