p2_continuous-control/saved/checkpoint_actor.pth (torch_old, 169456 bytes, 6 tensors)

fc1.weight f4 [256, 33]
000000 32 54 98 bd 6f 5f ed bd 5a a4 37 3d 18 65 ab 3d
       -0.07437934 -0.11590468 0.044834472 0.083688915
000010 09 cc 1b bd 36 21 b4 bd cf 15 14 3d 17 76 0d 3d
       -0.03803638 -0.08795397 0.03615361 0.034536447
000020 99 95 e2 bd db 90 e1 bd a4 8f dd bd 85 35 18 bd
       -0.1106369 -0.11013957 -0.10818413 -0.037160415
000030 98 ea 37 3b 4c 83 f7 3d a4 08 2b 3b 20 cf b8 3b
       0.0028063413 0.1208559 0.002609768 0.0056399256
000040 bd 69 95 bd ba 25 c9 3a c1 d3 80 3d 4b 6f ca 3d
       -0.072955586 0.0015346326 0.06290389 0.09884509
000050 b0 dd a0 bc a3 5e bb 3c 1f 67 96 bd aa 77 8e bd
       -0.019636959 0.022872275 -0.073438875 -0.06956418
000060 ac c0 60 bd be 39 ac 3d f2 45 d5 3d b5 9c a7 bc
       -0.054871246 0.08409451 0.10413732 -0.020460466
000070 f6 d6 02 be 70 2a 01 3d 80 93 5b 3d 74 00 e9 3c
       -0.12777314 0.031534612 0.053607464 0.028442599
000080 3a 5f 75 bd 86 8f 27 be c8 e1 03 3b ad 45 87 bd
       -0.05990527 -0.16363344 0.002012359 -0.066050865
000090 d0 e0 a1 bd 9e d3 0e 3d 68 61 d3 bd 06 51 86 bd
       -0.07904208 0.034869783 -0.10321313 -0.06558423
0000a0 2a 60 ac 3d a3 d9 de 3d e4 69 fd bc e9 00 1d bd
       0.08416779 0.10881355 -0.030934282 -0.038330946
0000b0 ad a0 9d 3c 64 ee 2c 3c 4f 1d 38 bd a1 19 01 be
       0.019241655 0.010554884 -0.044949826 -0.12607433
0000c0 c5 2d 13 be d6 e4 0b 3e 61 2c 93 3b b9 95 57 bd
       -0.14372928 0.13661513 0.0044913744 -0.05263302
0000d0 5c 7f bf 3d c7 46 50 3d 30 f1 63 3d f0 e7 87 bd
       0.09350464 0.05084875 0.055649936 -0.066360354
0000e0 fb 57 2a 3d ab c2 e5 bd 90 7e 7b bd af 09 d4 3d
       0.04158781 -0.112187706 -0.061399996 0.103534095
0000f0 04 a2 cd 3c 5d dc f5 3a ca 5b 71 bd 7c 78 5c bc
       0.02510167 0.001875769 -0.058925427 -0.01345646
000100 1a 4e 54 3d 80 20 14 3d 0f 89 a9 bb d6 e3 f3 3d
       0.051832296 0.036163807 -0.0051738094 0.11908691
000110 70 b1 af 3c e0 df 9a 3d ca 33 ad 3d 02 40 18 be
       0.021446913 0.07562232 0.084571436 -0.14868167
000120 aa 14 b9 3c 32 f3 9e 3c 97 c3 17 3d 04 25 bf 3c
       0.022592861 0.019403074 0.037051763 0.02333308
000130 34 78 0d bd ac 19 55 3d 14 6f 92 bb 17 66 28 3d
       -0.034538463 0.052026436 -0.004468808 0.041112985
000140 b8 70 bd 3d b0 37 6d 3d 5e d3 94 3d 66 68 ed 3c
       0.09250015 0.057914436 0.072668776 0.028980445
000150 ea 14 db bc 2e 9d 47 bd 5c 91 84 3d 79 09 2c be
       -0.026743371 -0.048733883 0.064730376 -0.16800489
000160 74 e5 90 3d d3 fb 40 be c5 8a c6 3d ac 40 c1 3d
       0.07075015 -0.18846063 0.09694437 0.09436163
000170 92 d4 61 3c 96 3a 34 3d 56 13 27 3e 28 41 06 3d
       0.013783591 0.044001184 0.1631597 0.03277698
000180 43 ac d9 bd 7c a1 12 bd 44 c7 84 3d 1d 68 b8 bd
       -0.106285594 -0.035798535 0.064833194 -0.09004233
000190 c8 3c b6 3c 77 53 5f 3e a5 d9 3f be 0a ff 9b bd
       0.02224578 0.21809183 -0.18735369 -0.07617004
0001a0 b8 cb 9a bd 68 f9 3a 3d 17 b1 25 ba 05 fd e4 bd
       -0.075583875 0.04564801 -0.0006320639 -0.11181072
0001b0 bf 04 81 bd a0 ff 46 bd ed c0 0f 3e 96 16 79 3d
       -0.06299733 -0.048583627 0.14038439 0.060812555
0001c0 b2 e8 28 be 81 b8 f8 bd e9 04 a7 bc 38 24 88 3d
       -0.16495016 -0.12144566 -0.020388084 0.06647533
0001d0 23 64 7b 3c 7a 8a 94 3b ee 8d 4f 3d 40 cf 89 3b
       0.015343699 0.0045331093 0.050672464 0.0042056143
0001e0 4b 59 8e 3d c4 18 a3 3c 5c cf 8b bc d2 ec f2 bb
       0.06950625 0.01990927 -0.01706665 -0.007413485
0001f0 13 b1 95 3d 93 bb f2 3d d7 9e a0 bc 6e 19 a9 3d
       0.07309165 0.11852183 -0.01960699 0.082568035
000200 8c 51 63 bd c6 82 49 3d 38 cd 34 bd a6 68 96 3e
       -0.05549769 0.04919698 -0.044141024 0.29376715
000210 36 da 90 bd 8a b7 00 3c 4a 97 cb 3d 25 71 50 bd
       -0.070728704 0.007856259 0.099409655 -0.050889153
000220 70 d6 c1 3c c8 3a 9b bd 19 2d 71 3d fe 4f 17 be
       0.023661822 -0.07579571 0.0588809 -0.14776608
000230 5c 9b 6f bd 38 e3 2d 3d cc 3f 98 ba 9d 95 bc 3c
       -0.05849777 0.04245302 -0.0011615693 0.02302056
000240 8e 61 8f 3d dd 51 c6 3d e8 1d 62 3e 65 bf e6 bc
       0.07001029 0.09683583 0.22081721 -0.028167436
000250 7f d7 05 3e 77 b3 e3 3c 45 c8 8c bd eb b6 ac 3c
       0.13070486 0.027795536 -0.06874136 0.021083316
000260 e4 23 77 bd 09 ac 20 3e eb b2 6f 3d 40 f6 31 bd
       -0.060336962 0.15690626 0.05852024 -0.043447733
000270 68 69 0f 3e 9a 08 7a 3d 85 e9 8e bb c1 0e 8d bd
       0.14005053 0.06104336 -0.004361334 -0.0688758
000280 4e 40 45 bd b8 4f 37 3c 05 e7 a4 3d 28 a8 74 3d
       -0.04815703 0.01118844 0.08051876 0.05973068
000290 5a 40 ab be 55 32 c2 3d 64 b6 c3 bd 4f 22 02 bd
       -0.33447534 0.09482256 -0.095562726 -0.031771
0002a0 cd d1 18 3d 2b 62 97 3d 1d ef 24 3e 33 21 2c 3c
       0.037309457 0.07391771 0.1610684 0.010505962
0002b0 ea d0 df 3c aa 6b 19 be 15 0e 2d 3e 13 e7 c2 3d
       0.027321298 -0.14982477 0.16899903 0.0951673
0002c0 59 21 f7 3c ce 63 f7 bc fc 20 70 3c a1 a6 2d be
       0.030167269 -0.030198958 0.014656302 -0.16958095
0002d0 de bd cc 3d 1e e7 2f 3d d1 cd 92 bb 84 24 ba 3c
       0.09997152 0.04294502 -0.0044801016 0.02272249
0002e0 63 4e 9f bb ca 88 96 bd 12 ed 92 3d 43 41 31 3c
       -0.0048616393 -0.07350309 0.07174124 0.010818782
0002f0 a6 76 2a 3d 1a 3d d2 bc 02 da 64 3d d9 fa e7 bd
       0.04161706 -0.025663901 0.05587197 -0.11327142
000300 e8 03 3e be df 4d dc bd e8 8c bf 3c 18 9f 34 3e
       -0.18556178 -0.1075704 0.023382619 0.17638814
000310 b4 4c 82 3c d2 cc 8d be 89 19 f2 bb b7 9a b4 bd
       0.015905716 -0.27695328 -0.007388298 -0.08818572
000320 c4 1b bc 3d 0f 5b 10 bd a9 4c fa 3c b6 76 aa 39
       0.091849834 -0.03524309 0.030554133 0.00032513373
000330 47 25 a4 bc a4 f4 c7 3d 8c 69 41 bc dc 1c 32 bd
       -0.020037306 0.09763458 -0.0118049495 -0.043484554
000340 28 f8 ca bc 5d f3 0b 3d e2 d0 0d bd 70 e4 37 be
       -0.024776533 0.034167636 -0.034623034 -0.17958236
000350 05 54 9d 3d 7e b9 ca bd 5a cf ad bd 00 42 08 3d
       0.07682041 -0.09898661 -0.08486815 0.033266068
000360 b5 aa 10 bd b8 5e 13 3d a1 96 6a 3c 5b c2 95 3c
       -0.03531905 0.035979003 0.014318139 0.018281152
000370 be 63 7e bd b2 77 29 bc 58 93 e5 bc f0 b3 31 3c
       -0.06210684 -0.010343479 -0.02802436 0.010846123
000380 f9 9c 2b 3e 61 2a ab bd 1e 60 e1 bd 90 ba 22 3d
       0.16759099 -0.083576925 -0.11004661 0.0397287
000390 90 12 dc 3c 38 80 46 3c df f7 3b bf 43 ae 9b 3c
       0.02686432 0.012115531 -0.73425096 0.019003993
0003a0 a8 fa 62 bd cb f1 0b 3d 8c 10 b8 3d 3d 32 be bd
       -0.055414826 0.03416614 0.08987531 -0.09286926
0003b0 93 36 79 bd 2f 2d 1c bc 5a ee aa bc 3d 76 2e 3e
       -0.06084306 -0.009532257 -0.020865608 0.17037292
0003c0 7b b6 e3 3c d6 ed cc 3d 8b 9c 1e be ae 52 54 bd
       0.027796974 0.10006301 -0.15489404 -0.051836662
0003d0 45 bd 38 bc e8 44 f3 bc 6f 7f cf bd 52 e6 42 bd
       -0.011275594 -0.029695943 -0.10131728 -0.04758293
0003e0 2e bd 51 b9 2d 0c 1c 3e a5 eb 8c 3d 0e 73 a3 bd
       -0.00020002268 0.1523902 0.06880883 -0.07980929
0003f0 df 0a d5 3c cf cf b3 bd cd 52 1f 3e 52 d0 8d bd
       0.02600616 -0.08779871 0.1555893 -0.069244996

fc1.bias f4 [256]
000000 c0 16 0f 3e 85 05 25 3e d9 e6 c7 bd 9b b5 21 3e
       0.13973522 0.16115387 -0.097608276 0.15791933
000010 c0 d5 d5 3c 03 29 76 3c dd b5 a2 bd aa d5 35 3d
       0.0261029 0.015024426 -0.07944844 0.04439322
000020 f7 bc da 3d a7 fe fe 3d ac bf 14 be 5f dd 9a bd
       0.106805734 0.12450915 -0.14526242 -0.075617544
000030 86 c8 20 3e f3 e0 ca ba 63 2f 7e 3e 6f 14 af bc
       0.15701494 -0.0015478417 0.24822764 -0.021372048
000040 bd e8 43 bd 10 6c dc bd 70 34 8e 3e 6a a6 25 bd
       -0.04782938 -0.10762799 0.27774382 -0.040441908
000050 5b 69 46 3d 5d 06 13 3e fb 0d 31 3e 51 4c c4 3b
       0.04844032 0.14357896 0.1729049 0.005990543
000060 25 05 42 bc 4d bc e7 bd 73 67 72 3d 44 c2 99 bd
       -0.011842047 -0.113152124 0.059180688 -0.07507756
000070 f3 ea 0f 3e 92 dd bc 3d 65 fe 82 3d 16 52 01 be
       0.1405447 0.09221949 0.06396178 -0.1262897
000080 89 3e 3e be 6d ae 2c 3c db 01 ca 3c b3 39 0c 3c
       -0.18578543 0.010539633 0.024659088 0.008558678
000090 7d ed 26 3e 66 67 01 3e 2d ab f7 bb d3 ef 13 3e
       0.16301532 0.126371 -0.0075582475 0.14446954
0000a0 c6 92 10 be 1e 47 c9 bd 25 31 1b 3e 34 69 06 bd
       -0.1411849 -0.09828018 0.15155466 -0.032815173
0000b0 43 0c cd 3a 79 18 69 bd f0 81 f4 3c 6d dd ed 3d
       0.0015643913 -0.056908105 0.029847115 0.11614499
0000c0 ec 49 09 3e 76 03 b9 bc f3 25 32 be 62 61 95 3d
       0.13407105 -0.022584658 -0.17397289 0.07293965
0000d0 cc 4f 38 bd 20 b9 9e bc 6d b9 df bd 3e 00 14 3e
       -0.044997975 -0.019375384 -0.10924039 0.14453217
0000e0 34 98 a5 bd 00 c9 a2 3d 47 76 69 bc 45 39 17 bd
       -0.08085671 0.07948494 -0.014249391 -0.03691985
0000f0 fc 26 ae bd ec c1 73 3e f4 66 5a be 11 91 81 bd
       -0.085035294 0.23804444 -0.21328336 -0.06326497
000100 22 d4 d5 bd 70 80 a4 3c 7a 8c 29 3e 68 94 c7 3d
       -0.10440852 0.020080775 0.16557494 0.09745103
000110 16 6e 31 3e 85 19 c2 3d d0 16 d1 3d 00 a5 c1 3d
       0.1732715 0.09477524 0.10209429 0.094552994
000120 33 3f 30 3c 15 58 5c 3c 15 83 ba 3d 11 e5 4f 3e
       0.010757255 0.013448735 0.09107033 0.20302226
000130 1a 35 29 3e 73 c1 ac bd 6d d2 4b 3e a5 97 b5 bd
       0.16524163 -0.08435335 0.1990449 -0.088668145
000140 25 df 23 3e eb 7b b4 3c 0b 47 46 3d 92 61 23 3e
       0.16003092 0.022031745 0.048407596 0.15955189
000150 9f f6 5c 3e b2 35 3a be e2 f7 00 3e 56 62 0d 3e
       0.21578453 -0.18184546 0.1259456 0.13807043
000160 86 76 03 3e 27 f0 cd 3d 66 51 c5 3d bc 44 20 3d
       0.12838182 0.10055571 0.09634666 0.03912805
000170 a8 11 24 3e 35 46 83 bd db d4 15 be 28 e9 23 3e
       0.1602236 -0.06409875 -0.14631979 0.16006911
000180 e3 ac 7e 3e f8 25 6c bd c4 51 07 3e b4 ea 87 3d
       0.24870639 -0.057653397 0.13214785 0.06636563
000190 b2 63 2f 3e b8 16 7a 3d 86 42 43 3e 27 dc 18 bd
       0.17127874 0.061056823 0.19068345 -0.03731933
0001a0 66 96 3f be 58 7a 11 3e af 3f af bd ab 98 12 3e
       -0.18709716 0.14206827 -0.085570686 0.1431605
0001b0 7a 26 08 3e cf 84 83 bd f2 b4 8c 3e d6 63 94 3e
       0.13295928 -0.064218156 0.274818 0.2898242
0001c0 06 cc b9 bc cc d3 23 3d 10 52 08 3e e1 57 38 bd
       -0.022680294 0.039996907 0.13312554 -0.045005683
0001d0 ff 13 97 3d 79 3b 4b be 4f c4 62 3d 97 fc 42 be
       0.07376861 -0.19846906 0.055362996 -0.19041668
0001e0 bc 43 0f 3e 05 24 07 3e c3 f4 09 3e 06 9a ce 3d
       0.13990682 0.13197334 0.13472275 0.100879714
0001f0 b8 6b 82 bd dd ff c4 3c 80 22 dc bc 04 f0 8c 3d
       -0.06368202 0.024047786 -0.02687192 0.06881717
000200 12 0d a1 3d 7a 72 47 3e ac 3b 35 be 51 41 61 be
       0.07863821 0.19477263 -0.17698544 -0.21997572
000210 e1 9e 1d 3e 70 95 1d 3e 09 6b ce 3d c0 84 20 be
       0.15392639 0.15389037 0.10079009 -0.1567564
000220 79 7a 1f be e7 69 5c 3e 80 56 49 be b1 f1 2b bd
       -0.15574063 0.21524774 -0.19661903 -0.04197854
000230 20 65 68 bc 09 e8 67 be bd 73 70 be 5d b4 d5 bd
       -0.014184266 -0.22647108 -0.2348165 -0.10434792
000240 6d 1f 25 3e 29 e9 45 3d 87 94 a7 3d 87 b3 03 3d
       0.16125269 0.048318062 0.08182626 0.032153632
000250 4e f2 48 3e 8a a0 e4 3d ae 95 1f bd 52 d3 91 3b
       0.19623682 0.11163433 -0.038961105 0.00445024
000260 f6 63 0d 3d f4 83 a9 3c d1 ad 04 3e ad 45 0e 3e
       0.03451916 0.020692803 0.1295693 0.13893767
000270 9b 6a 8c 3d bc b0 e4 3b 01 08 3c 3d 6d b2 00 be
       0.06856271 0.006979076 0.04590607 -0.12568064
000280 1d 91 37 3e 00 42 74 3d d2 77 a2 bc 75 7d c8 bd
       0.1792645 0.059633255 -0.019832525 -0.09789554
000290 d0 0d bf 3d 65 39 89 3b 31 5a 0a 3e 87 c2 67 bd
       0.093288064 0.00418775 0.13510968 -0.056582
0002a0 8e bb 4d 3d 3e b0 69 3e 87 c5 5b bd fe f2 c6 3d
       0.050227694 0.22821137 -0.053655174 0.09714316
0002b0 d7 14 30 3e ab 0f 50 3e 50 2a 07 3b 58 7d 07 3e
       0.1719545 0.20318477 0.0020624585 0.13231409
0002c0 87 08 24 3e 98 a6 2d be 64 11 78 3e c9 05 02 be
       0.16018878 -0.16958082 0.24225384 -0.1269752
0002d0 d0 5e 7a bd b2 77 2c 3e ad de 20 bd 4e f6 e3 bd
       -0.061125576 0.16842535 -0.03927486 -0.11130963
0002e0 25 53 c3 3d 3d 11 2c bd 0f 45 db 3d 13 a0 b7 3a
       0.09537343 -0.042008627 0.10706531 0.0014009498
0002f0 25 f7 3c 3e b6 4a 7e 3e 38 ae 99 bd ed 8b d7 bc
       0.18453653 0.24833187 -0.07503933 -0.026311839
000300 ca 5e 75 3d 5a 73 ba 3d 60 64 59 3e 70 09 7e bd
       0.05990485 0.09104033 0.21229696 -0.06202072
000310 df 81 ca bd ac b8 0f 3d b9 2b d7 3b d9 83 a5 bd
       -0.09888052 0.035088226 0.0065664914 -0.080817886
000320 5d 37 14 be 5c 71 45 3e e3 82 e0 3d ab 16 2d bc
       -0.14474244 0.19281524 0.10962465 -0.0105644865
000330 10 02 f7 3d c0 d2 53 3d 5c 54 e4 3d 7c 0d a1 3d
       0.1206094 0.05171466 0.11148903 0.078639
000340 df 45 ea bd b8 91 31 3d 9a c9 0f 3e 6a db e5 3d
       -0.11439108 0.04335186 0.14041749 0.112234905
000350 a3 bb d1 3c a6 c3 26 bc de ec d1 3d b0 93 b7 3d
       0.025602167 -0.010178482 0.10250257 0.08963716
000360 d5 6a 01 3c 8e 85 35 3e 2f 01 1b 3e 10 7e fe 3d
       0.007899006 0.17726728 0.1513717 0.12426388
000370 e1 d4 1a 3e 6b 21 09 bd 1c 89 7c bd a5 a8 eb bd
       0.1512027 -0.033479135 -0.061654195 -0.11506776
000380 1d a3 1a 3e be bc 02 bd 0c 17 06 be dd 03 fd 3b
       0.15101285 -0.03191828 -0.13094729 0.007721408
000390 01 1a 5b bd 0d f0 37 3d 30 ea f1 bd 77 63 2e 3e
       -0.053491596 0.044906665 -0.11812246 0.1703013
0003a0 3a 93 5b be 83 da 1a be 18 a7 8f 3e b4 ab a0 bd
       -0.21442881 -0.15122418 0.2805717 -0.0784525
0003b0 21 b9 f0 3d 54 72 83 3b ab 72 2c bd a2 ca b2 bc
       0.117540605 0.0040114317 -0.042101543 -0.021825138
0003c0 1c 04 b5 bb 26 3c 88 be 26 79 3e 3e e7 ec 3a 3d
       -0.0055241715 -0.2660839 0.18600902 0.045636084
0003d0 22 05 fe 3d 07 d0 bb 3d 04 c7 c5 3d 84 a0 4d 3d
       0.12403323 0.091705374 0.096571 0.050201908
0003e0 de b4 23 3e 02 19 ea bc d2 83 b1 3d 1a 11 8d bd
       0.15986964 -0.028576378 0.08667721 -0.068880275
0003f0 ec cb 4b 3e 97 47 b7 bd 32 9d 01 3e bb b3 71 3d
       0.19902009 -0.089492016 0.12657622 0.059009295

fc2.weight f4 [128, 256]
000000 c9 3a ba bd 04 b1 ce 3c ea 01 08 be 7c de bb bd
       -0.09093244 0.025230892 -0.1328198 -0.09173295
000010 41 3f 12 bd 46 b6 9b 3d e4 f9 78 bd ea 57 02 3d
       -0.035704855 0.07603125 -0.06078519 0.031822123
000020 c8 b8 e2 3d 74 00 ab 3d 23 01 22 3c 58 35 63 3e
       0.110704005 0.08349696 0.009887966 0.22188318
000030 f3 22 d4 3c db 8a e6 b9 a7 4d dc bd da 29 ec 3b
       0.025895571 -0.00043972474 -0.107569985 0.0072071375
000040 61 b6 6a 3d 63 db da bc fe 53 be bd d8 02 a2 bd
       0.057302836 -0.02671594 -0.09293364 -0.07910699
000050 94 35 78 3d 0f 92 b3 3d c2 1b 62 3d 8a 19 7c bd
       0.06059797 0.08768093 0.055202253 -0.061547793
000060 d0 3f 67 bc fd 0a 8a bd a4 6a 15 bd c9 a7 8c bd
       -0.014114335 -0.06740377 -0.036478654 -0.0686794
000070 09 92 ac bd 30 ca fd 3d d6 53 8e bc 88 9b a0 bb
       -0.084262915 0.1239208 -0.01737396 -0.0049013533
000080 e7 b7 8e bd a5 ba 07 be a8 6d e3 3d e5 82 a7 3d
       -0.0696867 -0.13254793 0.111049 0.08179263
000090 8c 6f 23 3d 97 16 02 bd 2d 4b fc bd 13 f7 82 3d
       0.0399013 -0.031759825 -0.12319026 0.06394782
0000a0 e2 08 45 3d 89 6d 3e 3d 9d cb 03 bd 1b ac 6e be
       0.048104174 0.04649118 -0.032176603 -0.2330784
0000b0 bc 48 90 3d 6f cc 0e bb ea 69 e1 bd 2d 7f da bc
       0.07045123 -0.0021789332 -0.1100653 -0.02667197
0000c0 52 7f 0a bc 17 42 50 bd 15 63 50 bc 0e d7 27 bd
       -0.008453207 -0.05084428 -0.0127189355 -0.040976577
0000d0 af 14 fe 3d a3 79 45 3d 1e 94 b7 bd 46 70 67 3d
       0.12406289 0.048211705 -0.08963798 0.056503557
0000e0 3f 8a f3 bd c2 3d a4 bd 7b 57 bf 3c c6 bd ab 3d
       -0.11891603 -0.08019592 0.023357144 0.08385806
0000f0 b8 2a 71 3d 3f 8c 50 3d d1 87 c9 3d 42 97 a2 bc
       0.05887863 0.050915 0.09840358 -0.019847516
000100 b7 3e b2 3d d8 2e 08 be f0 40 d2 3d 49 ad 8d 3e
       0.08703368 -0.1329912 0.10266292 0.2767127
000110 8a 5d e7 3d 20 2d 80 3d 28 a6 ec bc 28 45 dc 3c
       0.11297138 0.06258607 -0.028887823 0.026888445
000120 73 8f 6b 3d 39 13 80 3d 24 05 ba bd b0 b5 cf 3d
       0.05750985 0.062536664 -0.09083012 0.10142076
000130 13 de 03 bd 97 90 09 bd da 90 91 bd 5e 58 bd 3c
       -0.03219421 -0.033585157 -0.07107706 0.023113426
000140 05 c6 7c 3c f1 01 33 bd 97 45 5c bd c5 9a 1a 3b
       0.015428071 -0.043703023 -0.053777304 0.0023590785
000150 eb cd 58 bd ca 0f 22 3c 29 e8 e1 bc dc b2 10 3e
       -0.052930754 0.00989146 -0.027576523 0.1413073
000160 93 26 0a bc 5b a1 a3 bc 1f bd 69 bc 04 57 d3 bd
       -0.008432048 -0.019974401 -0.014266281 -0.10319331
000170 46 23 f1 bd 5a 05 83 bc 39 94 26 be 28 2e c1 3d
       -0.11774306 -0.015993763 -0.1626748 0.09432632
000180 df 5c d2 3d 03 ac f3 3c 46 79 d7 3d 5e 3b 46 3d
       0.1027162 0.029745108 0.10521178 0.04839646
000190 a5 1d 0f 3c 9e c4 99 3a 9f 00 fd bc a2 a3 7f 3d
       0.008735095 0.001173157 -0.030884085 0.06241191
0001a0 da 03 f4 bd 4d d2 68 3d bc 89 20 3d 75 8c 1c 3d
       -0.11914797 0.056841183 0.039193854 0.038219888
0001b0 72 51 98 bc 2a 5e 1b 3e 38 af e2 bd 37 e1 ba 3d
       -0.018593524 0.1517264 -0.110685766 0.091249876
0001c0 85 1c 86 3c 16 69 ae 3d bd a0 07 bc 45 71 3c 3d
       0.016371021 0.08516137 -0.008278069 0.04600646
0001d0 c9 c9 fd 3d 9a 5a 96 3d dc 5b a9 3c 3f a4 f9 bd
       0.12392003 0.073414996 0.020673685 -0.121895306
0001e0 f4 ee d2 3c 91 4e 81 bd 86 e2 ab bd bb 01 b6 bd
       0.025748707 -0.063138135 -0.08392815 -0.08887049
0001f0 df 7f 48 3d d1 f4 b2 3d eb 5b 6e 3d 61 09 2f 3d
       0.048950072 0.08738101 0.05819313 0.042733554
000200 34 d4 8f bd b8 76 b2 3d ed 4b 4c bd 3d b8 76 bd
       -0.070228964 0.0871405 -0.049877096 -0.060234297
000210 74 5c 07 3e 70 be b4 bd 19 a1 7f bd 08 c6 4f 3d
       0.13218862 -0.088253856 -0.062409494 0.050725967
000220 34 d1 1f 3c 14 0e de 38 20 d4 82 3d 41 03 62 bc
       0.009754468 0.00010588407 0.06388116 -0.013794721
000230 71 94 20 3b 83 3f 57 3c 7c b5 7a bc 76 08 fa be
       0.002450254 0.013137701 -0.015302058 -0.4883458
000240 44 04 07 3e a5 ba 8b 3d a3 c4 9a 3c ee 96 6f bd
       0.13185221 0.06822709 0.018892592 -0.058493547
000250 9e 8d 3f bc 71 05 fa ba a6 eb 90 bd dd 95 97 bc
       -0.011691479 -0.0019075108 -0.07076196 -0.018504078
000260 1a 29 2f be fa 9f 1e bd e6 28 05 bd 0c f6 64 3d
       -0.17105523 -0.038726784 -0.032509707 0.05589871
000270 a6 9c 33 3c f2 d2 c9 3c db cd 97 be 1d d9 e1 3d
       0.010962641 0.02463672 -0.29649243 0.11027739
000280 7e e2 6c bd d2 7c f3 bc f9 c7 42 be e2 28 01 3e
       -0.057833187 -0.029722605 -0.19021596 0.12613252
000290 d6 18 67 be 9a cb 0f be 60 d1 aa bc ef 05 47 bd
       -0.22568068 -0.14042512 -0.02085179 -0.048589643
0002a0 ac 2d 07 3c 4b ef 87 3c 1c 7f 41 be 5b 4d 23 bd
       0.008250635 0.016593596 -0.18896145 -0.039868694
0002b0 4e 38 05 bd 77 c2 2b be 1d 9e 13 3e 15 0d 9f 3c
       -0.0325244 -0.16773401 0.14415784 0.019415418
0002c0 c5 5f 10 3e 19 7e 1d be 73 a6 bb bd 4a bf 4c 3e
       0.14099033 -0.15380134 -0.09162607 0.19994846
0002d0 29 8a 77 bd 70 74 df bd 46 58 e1 3d 27 cc a7 bc
       -0.060434494 -0.109108806 0.11003165 -0.02048309
0002e0 79 cc 5f bd 35 55 17 3d 72 70 c9 bc 08 4a 32 3d
       -0.05463836 0.036946494 -0.02458975 0.043527633
0002f0 99 1a aa bd 17 b0 8b ba 6a f1 10 3e 80 50 17 bd
       -0.08305854 -0.0010657337 0.14154592 -0.036942005
000300 5f 1b 14 3e be 55 eb bc 7a 66 0f be 6d 26 b6 bd
       0.14463566 -0.028727408 -0.14003935 -0.08894048
000310 bd d1 0d bd 79 0a 8b bd 8b 47 f7 3d 88 78 c0 3c
       -0.03462385 -0.06789107 0.120741926 0.023494974
000320 81 7d 5f be f1 d9 64 bd 36 2e c3 3d 8a 09 7a 3d
       -0.2182522 -0.055871908 0.095302984 0.061044253
000330 64 41 10 bd cc b7 06 bd a5 c3 84 3d 60 5e f6 bd
       -0.03521861 -0.032890126 0.06482629 -0.12029719
000340 5d 32 ed bd 20 ee 4d bc 5d 8e 11 3e f8 8f b3 39
       -0.11581872 -0.01256898 0.14214464 0.00034248806
000350 d6 a1 fa bc 3b b0 dd bd 43 5e fd bd 66 d9 e5 3c
       -0.030594748 -0.10824629 -0.123714946 0.028057765
000360 6e a1 ef bc 72 e5 36 3d b3 16 5d bd 66 e0 fe bc
       -0.02925178 0.04465241 -0.053976726 -0.03111286
000370 0d 50 2b 3c d9 b7 19 bc 05 2e ac bc ae a1 5b bc
       0.010456097 -0.009382212 -0.021018038 -0.013405247
000380 17 cd 2c 3e fb 41 f9 bd 9e 66 f7 bd 56 86 75 3d
       0.1687511 -0.12170788 -0.120801196 0.059942566
000390 8e a7 90 3d 9a 1f 6d bc 39 dc 05 3e 1b 3c 2b 3d
       0.070632085 -0.014472866 0.1307229 0.041805368
0003a0 ba e7 0a be a8 98 ee 3d 77 47 9e bc 26 e2 05 3d
       -0.13564959 0.116502106 -0.019321186 0.032686375
0003b0 ba 17 4f 3d ba 28 d3 bc 28 9f 5e be 73 61 23 bd
       0.050559737 -0.025776256 -0.21740401 -0.039887857
0003c0 a1 e9 09 3d f4 be 89 3c 64 29 df bd 39 3a e6 3d
       0.03367007 0.016814686 -0.108965665 0.11241574
0003d0 3c 96 88 bd 25 c8 7d bd f9 23 38 3c d2 d0 13 be
       -0.0666928 -0.06195845 0.011239045 -0.14435127
0003e0 3b 39 9b bd a9 24 8e 3d d4 fe b9 bd ad 48 0a 3e
       -0.07579275 0.06940586 -0.09081808 0.13504286
0003f0 20 c9 4e bc cd 8c 08 3e 2a 59 74 3d 8a 4f 66 bc
       -0.012621194 0.13334961 0.059655346 -0.0140570495

fc2.bias f4 [128]
000000 90 b4 1a 3c ad c1 bb bc b3 a8 3b bd a1 94 7b bc
       0.0094424635 -0.0229195 -0.04581518 -0.01535526
000010 ca 71 a1 bd 34 e8 ab 3d 83 b5 d2 39 3b 9f 71 bc
       -0.07883032 0.083938986 0.00040189558 -0.014747436
000020 82 29 ce 3a 85 ed 6d bb a7 97 2f bb d7 21 8c bd
       0.0015728923 -0.0036304903 -0.0026793273 -0.06842392
000030 84 9e 0b be 91 e9 f7 3b 61 89 af 3c 7a 5d b3 3c
       -0.13634688 0.007565685 0.021427812 0.021895159
000040 7e e3 a3 bc 9b 8b d5 3c 1e d5 51 ba 4a 54 8a bc
       -0.020005938 0.026067546 -0.0008004474 -0.016885895
000050 af 53 b5 3c 9e 3f b9 bd 3f 46 93 bc 14 14 d3 3c
       0.02213463 -0.09045337 -0.017977832 0.02576641
000060 f3 a3 0d bd 2a da 6b bd cd 04 02 bc 6c 55 ac 3d
       -0.034580182 -0.057581104 -0.007935715 0.084147304
000070 3b 24 5a 3d 5f 4a 01 bc 7b 95 dd bd 61 b8 8c bc
       0.05325721 -0.007891267 -0.10819527 -0.017177762
000080 e9 57 70 bd c3 55 8c bc 28 ac f8 bd 7e b4 22 3d
       -0.058677588 -0.017130738 -0.12142211 0.039722912
000090 a0 dd 8f 3d 2e c1 28 bd 45 b0 4e bc 76 b7 4c bd
       0.070246935 -0.041199856 -0.012615268 -0.04997965
0000a0 f2 48 69 3d 2d 35 aa 3c 6b a5 9e bc f7 9a 22 bd
       0.05695433 0.02077731 -0.019365987 -0.039698567
0000b0 5f 34 f1 bc e8 f4 b6 3d cd 90 bc 3c 4f 5e 45 bb
       -0.029443918 0.08933431 0.023018265 -0.0030116027
0000c0 9c 4e 81 bb ae b0 07 3d 0e e6 de bc 1e cb 55 bd
       -0.0039461385 0.03312748 -0.027209308 -0.05219566
0000d0 48 26 03 bc 09 2a a4 bb 87 9b 42 bd 10 64 84 3d
       -0.008004732 -0.005009894 -0.047511604 0.06464398
0000e0 05 33 22 3c e5 0f e7 b9 08 83 9f 3d 0e 2f dc 3c
       0.009899859 -0.00044071596 0.07788664 0.026877906
0000f0 9b a1 40 bd 1b 70 22 3d 5e cd ba 3c 92 7c ae 3d
       -0.04702912 0.039657693 0.022803005 0.08519854
000100 b5 2a 6e bd 31 e7 ea 3d 54 0d c8 bc ef c9 c9 3c
       -0.058146197 0.114698775 -0.024420418 0.024632422
000110 a9 fd 99 bb ce f9 05 bd e9 75 8c bd de c5 4d bd
       -0.004699428 -0.032708935 -0.06858427 -0.05023753
000120 18 f5 41 3d 69 2f 88 bc 8c 9e ec bb 05 22 20 3d
       0.04735288 -0.01662417 -0.0072210487 0.039094944
000130 c3 4e 79 bd d8 f8 d5 3d e0 38 c1 3b cc 74 70 3d
       -0.06086613 0.10447854 0.0058966726 0.058705136
000140 1d de 91 bd 45 ce b6 bc 25 a4 57 3d 44 36 9a 3c
       -0.07122443 -0.022315154 0.052646775 0.018824704
000150 d5 f2 1b 3c fd 1b 8f bd 62 8a 7b 3d e0 11 99 3d
       0.009518345 -0.0698776 0.06141127 0.074741125
000160 52 04 50 3d ad f7 21 3d ff 6f 62 3d 99 b5 83 3d
       0.05078537 0.039542843 0.05528259 0.064311214
000170 8f e9 84 3d ab db 7a 3c 66 f3 19 bd 2f b0 1b 3d
       0.0648986 0.015311162 -0.03758564 0.03800982
000180 24 26 ef bd 3c 3b 1e 3d fb ba 2d 3d 07 0b 52 bd
       -0.116771966 0.03863071 0.042414647 -0.051280048
000190 7c 22 5c bd c8 24 4a 3d 7f 41 11 b8 3d b5 ce 3c
       -0.053743824 0.049351484 -3.4631692e-05 0.025232906
0001a0 b4 43 a9 3d 6f ba 0c 3c 87 3c 7b bd 65 8d 6a 3d
       0.082648665 0.008589371 -0.06133702 0.05726375
0001b0 ac 8e 47 3d 3b 57 14 3d 79 ed 9b bc b5 0f 6c bc
       0.048720047 0.036216002 -0.019034134 -0.014408042
0001c0 65 9a 5c 3d 51 af b4 bc 5f 4f 97 3d 32 c5 63 bc
       0.05385818 -0.022056254 0.07388186 -0.0139019955
0001d0 6b 26 53 3d c0 14 04 3d 02 c2 90 3d 6e ab 38 3d
       0.05155031 0.03224635 0.07068254 0.045085363
0001e0 af 2f 57 bc d7 d8 11 3d 85 35 b5 3c 61 01 b3 3d
       -0.013133927 0.035607185 0.022120247 0.087404974
0001f0 09 df 61 bc fa 3f 62 3b 79 be cc bc 57 3c 82 bd
       -0.013786086 0.0034522996 -0.024993168 -0.06359165

fc3.weight f4 [4, 128]
000000 14 91 34 3e 0d 07 e6 3c f7 60 68 be 60 01 3f 3e
       0.17633468 0.028079534 -0.22693239 0.18652868
000010 28 78 74 be 44 00 37 be 95 2c a5 b9 28 65 d8 3d
       -0.23873961 -0.17871195 -0.0003150447 0.10566169
000020 c4 b8 ab 3b 0f ad 0a bc d8 94 6c 3e 3c 31 0c 3f
       0.0052405316 -0.008464112 0.23103654 0.54762626
000030 dc 6f c0 3e 48 ce d7 3b b3 57 70 be 78 d6 9d 3e
       0.37585342 0.00658587 -0.23470955 0.3082769
000040 86 b3 c8 3d 2d 7a d6 bc 92 b8 78 3d 2a 62 30 3d
       0.097998664 -0.026181305 0.060722895 0.043062367
000050 5d 49 01 bd 81 d8 77 3e fe 74 a6 3d d0 a7 ef 3c
       -0.031564105 0.24203683 0.08127783 0.029254824
000060 b9 f9 1f be 10 ea ee 3d 0c 00 ad bd 13 06 86 be
       -0.15622605 0.11665738 -0.084472746 -0.2617651
000070 1d 65 65 be 24 90 ec bc f4 f2 74 3e 74 4c cc 3d
       -0.22401853 -0.028877325 0.23920804 0.0997552
000080 c8 8b 68 be b6 cf 36 3e 6e f1 15 3f f5 19 2f 3d
       -0.22709572 0.17852673 0.5857152 0.042749364
000090 bd a6 01 be be fd f2 bd b5 5e 69 be d7 a9 00 3e
       -0.12661262 -0.11864804 -0.22790034 0.12564789
0000a0 38 c1 1b be 0f 6f 89 be 21 d8 35 be 11 fb e7 bc
       -0.15210426 -0.26842543 -0.17758228 -0.02831796
0000b0 bf 6a b9 3e 30 67 6d 3c 35 9f fa 3d 38 d4 c0 bc
       0.36214253 0.014489934 0.122373976 -0.023538694
0000c0 1e b5 68 3e c9 ba ce 3c b1 2b 61 be 7b 77 bf 3e
       0.2272534 0.02523555 -0.21989323 0.37395844
0000d0 91 4f 89 3d f1 35 66 3e cc 75 13 ba a2 6c 9d 3d
       0.06704629 0.22481515 -0.0005625158 0.07686736
0000e0 31 9f 09 3d 41 54 79 bd 95 17 d6 bd e2 41 fe 3c
       0.033599082 -0.060871366 -0.10453717 0.031037275
0000f0 7f 89 22 3e 8e 69 a9 be ad 6c 3e 3d 57 15 1d 3c
       0.15872763 -0.33088344 0.04649036 0.009587607
000100 0d 56 23 3b 28 e5 34 be 3f 55 c4 bc b4 56 f2 3c
       0.0024923116 -0.17665541 -0.02396643 0.029582359
000110 59 92 91 3e e8 89 08 3f 5a 68 b9 bd 29 d9 26 be
       0.28431967 0.5333543 -0.090531066 -0.16293778
000120 b5 51 6d 3e 06 73 37 3d df 55 94 be 0a 6a 9b bc
       0.231757 0.04478743 -0.28971764 -0.018971462
000130 20 b8 d1 3d 64 e5 fa 3d 54 f5 35 3e 43 9d 43 be
       0.10240197 0.12250784 0.17769367 -0.1910296
000140 b7 80 54 3e fa a6 32 3e 59 b6 ca 3d f3 cf 97 3e
       0.20752226 0.17446509 0.09898061 0.2965084
000150 cd 6f 80 be bb cb a8 bd 85 fa 1e bd 47 d8 ba bc
       -0.25085297 -0.082419835 -0.038813133 -0.022808207
000160 54 6a a7 3c c8 5a 29 bd f6 dd 57 bc 8e 5b 5a bd
       0.020436443 -0.04134634 -0.013175478 -0.05330997
000170 c2 96 e4 bd b5 e1 de 3d 0d 4d 24 be b8 dc bd bd
       -0.11161567 0.10882894 -0.16045018 -0.092706144
000180 bd 4c 9a 3e 9d 61 9a 3d 15 60 7e 3e a9 88 10 3d
       0.30136672 0.075381495 0.2484134 0.03528658
000190 2f 13 34 be f8 2c 6c be cf 35 0a bc c6 e7 3f bd
       -0.17585443 -0.23064029 -0.0084356805 -0.046851896
0001a0 4e db 58 be 76 e2 55 3d e4 f5 af be d7 4e d4 3d
       -0.21177408 0.052217923 -0.34367287 0.103666
0001b0 3e 8c fa 3e d7 4a 3b 3e 89 83 6a 3e 50 94 a0 bd
       0.4893512 0.18290268 0.22901739 -0.07840788
0001c0 c7 46 42 3e 58 39 c4 bd b0 7b 29 be 25 fb 43 3e
       0.18972312 -0.0958125 -0.1655109 0.19138773
0001d0 88 8e 0e 3e 91 bc 83 3d b9 ce f6 3d f1 b7 33 3d
       0.13921559 0.064324506 0.12051148 0.043876592
0001e0 51 72 aa bd da 74 d4 3b 68 a4 9c be b5 2d a7 bd
       -0.083225854 0.0064836564 -0.30594182 -0.08163015
0001f0 36 e2 37 be 1c 86 aa bd ef 8e 24 ba 41 06 87 3d
       -0.17957386 -0.083263606 -0.0006277402 0.0659299
000200 61 c0 d8 bd 3f fa 80 bd 12 16 8e be 0f d0 49 3d
       -0.10583568 -0.06297731 -0.27751213 0.049270686
000210 ab 18 03 3f 6a d8 77 3e 53 d9 82 be d3 25 70 3d
       0.51209515 0.24203649 -0.2555643 0.058629822
000220 93 c3 fa 3d 59 f5 7a be 78 8a 88 be 70 5a 88 3e
       0.12244334 -0.24507655 -0.26668143 0.26631498
000230 28 66 c4 bd e0 4e 86 3d 74 d0 1d 3e 44 2a 99 be
       -0.09589797 0.06558013 0.1541155 -0.2991506
000240 ac 38 56 3b b9 e8 25 be 6d b8 1b 3e 29 18 8f 3d
       0.0032687588 -0.16202058 0.15207072 0.0698703
000250 93 ee 87 3d fd 6c 8f 3e 88 a7 c7 3d c1 bd 18 3f
       0.06637301 0.2801284 0.09748751 0.5966454
000260 26 b7 98 3e 41 6d 30 be ee d1 0f 3e 86 51 c1 3e
       0.2982723 -0.17229177 0.14044926 0.3775751
000270 9c ad b2 3d eb cc 6d be 51 a0 a8 3d d0 96 44 3d
       0.087245196 -0.23222701 0.08233703 0.04799539
000280 25 52 89 be 3e ef 2f be f3 4e 25 3d 66 c0 bd 3e
       -0.26820484 -0.17181107 0.040358495 0.3706085
000290 13 c2 24 3d 40 bb 13 bf 7e 97 a3 3d 68 3d 1c bf
       0.040224146 -0.57707596 0.07987879 -0.610312
0002a0 d0 81 f2 bd 9a da c3 3e 08 ad 88 be 9e 5b 14 3c
       -0.11841166 0.38252717 -0.26694512 0.009055046
0002b0 32 17 d4 3d 20 d1 8b be 6b c1 1b bf bf 65 b9 3d
       0.10355987 -0.27307987 -0.6084201 0.0905261
0002c0 12 df 6b 3e 23 d5 84 be 46 ba 8c bd c4 99 bb 3e
       0.23034313 -0.2594386 -0.06871466 0.3664075
0002d0 11 5f fc 3d d4 68 f8 be c8 ae b2 3c 69 72 59 3c
       0.1232282 -0.48517478 0.021811858 0.013271906
0002e0 27 30 bb bc cf ba 77 be e8 12 bf 3d 2f 24 e8 3e
       -0.02285011 -0.24192356 0.09329778 0.45340106
0002f0 7c 41 4e be 6e 9e 22 be a5 80 06 3d b8 e1 57 3d
       -0.20142168 -0.15880749 0.03283753 0.052705497
000300 21 3d 07 3e 7f 04 66 3d 4e 98 00 3e ad 5e 30 be
       0.13206913 0.05615663 0.125581 -0.17223616
000310 ba 81 94 be ef 27 f6 bd e9 fd fc 3d 33 9f 67 3e
       -0.29005224 -0.120193355 0.12353117 0.22619323
000320 f7 9c 56 3d 77 4b 67 3c 95 8f a6 be 6a 5f 9e 3e
       0.052395787 0.014117113 -0.3253142 0.3093217
000330 de d4 d6 3c 37 39 29 3f 11 60 90 bb 32 fc cd 3d
       0.02622455 0.6610293 -0.0044059833 0.10057868
000340 e1 88 e2 3e 16 47 8c 3e 60 e5 f0 3b 2b 81 a6 bd
       0.44245055 0.27397984 0.0073515624 -0.081301056
000350 89 c8 4f be ae f8 88 bd 71 0d 7a 3e 5a b5 e3 3b
       -0.20291342 -0.06688057 0.2441919 0.006949109
000360 2e 6c f0 3d 36 01 d2 3d 2a dd cd bd 1a ba 80 3e
       0.11739384 0.10254137 -0.10051949 0.25141984
000370 79 5c 23 3e 38 26 55 3d 16 c8 49 3e df 84 51 be
       0.15953244 0.0520384 0.19705233 -0.20460843
000380 7b 14 0a be 54 c9 5b bc d5 86 07 3e 73 6d aa be
       -0.13484375 -0.0134147 0.13235028 -0.33286628
000390 eb ca 1c be 87 15 1e be 67 17 d7 3c 75 68 6b 3e
       -0.15311782 -0.154379 0.026256276 0.22989066
0003a0 99 37 01 3e c4 a9 ac be 66 18 66 be 5d f8 36 be
       0.12618865 -0.3372327 -0.22470245 -0.1786818
0003b0 20 46 39 3e d2 aa 2d 3d f2 8b 03 be 5e 3d a9 be
       0.18093157 0.042399235 -0.12846354 -0.33054632
0003c0 94 53 9d 3d 74 d7 07 bf d0 7c b3 bc 1e 89 1c be
       0.07681957 -0.5306313 -0.021910101 -0.15286681
0003d0 0c 0f 15 3e d7 23 9d be 2e e3 0c 3d 67 6a cd 3b
       0.14556521 -0.30691406 0.034396343 0.0062687877
0003e0 5d bb 59 3d ed a1 d6 3c a2 28 6d 3d dd f7 42 3d
       0.0531572 0.02620026 0.05790008 0.047599662
0003f0 50 62 c6 3e 29 ca d1 3d df 7e 54 3e 70 df ec be
       0.3874688 0.10243637 0.20751522 -0.4626422

fc3.bias f4 [4]
000000 f2 cc e9 3c f8 1c 0d bc d1 e4 06 3d ea 3b 45 bd
       0.028540108 -0.008612864 0.03293306 -0.04815284
