p3_collab-compet/saved/checkpoint_actor.pth (torch_old, 159204 bytes, 6 tensors)

fc1.weight f4 [256, 24]
000000 d5 cd c8 3f 9d 82 55 bf 41 f9 87 be 58 0b 4d bd
       1.5687815 -0.83402425 -0.26557353 -0.050059646
000010 9b fd 7c bf 9c 05 4e bf 8c a5 85 be 64 d2 dc 3c
       -0.9882447 -0.8047731 -0.26102865 0.02695579
000020 e9 ea 99 3f 54 5f 1c bf aa 8a 82 be 35 4f af be
       1.2024814 -0.6108296 -0.25496417 -0.34240118
000030 c0 7e 93 bf da 39 75 bf 5e 8a 45 be ab 12 94 be
       -1.1523056 -0.957914 -0.19291064 -0.28920493
000040 14 72 95 3f 81 6c 48 bf 71 60 ea bd b4 cc 2c bf
       1.1675439 -0.78290564 -0.11444176 -0.6749985
000050 84 25 c5 bf 74 2c 5d bf e2 da 48 bd fe 5c 38 bf
       -1.5402074 -0.86395955 -0.049036868 -0.72016895
000060 38 3b 2e 3f 54 47 97 3e e0 57 46 bd a7 06 53 bd
       0.6805911 0.29546607 -0.048423648 -0.051520016
000070 8d a3 ab be 9c b2 87 bf 22 75 23 bd 42 bd 13 be
       -0.33523217 -1.0601382 -0.03990663 -0.14427665
000080 15 ae 43 3f 3e ae 62 3e ce 79 51 3d 36 7e 76 3c
       0.76437503 0.2213678 0.051141553 0.0150447395
000090 7d cc 8c be 6b 45 90 bf 56 d8 73 3b 4c ab cd 3c
       -0.27499762 -1.1271185 0.0037207804 0.025106095
0000a0 85 c9 44 3f b1 66 23 3e f6 08 94 3d ec 2c a3 3b
       0.76869994 0.15957142 0.07228272 0.0049797203
0000b0 49 d6 75 be a1 62 69 bf fb a1 f0 3d 91 8a 08 bd
       -0.24007525 -0.9116612 0.11749645 -0.033335272
0000c0 97 ea 3f 3e e6 19 eb 3f 76 3a d0 3c e8 eb 12 3e
       0.18741833 1.8367279 0.025418501 0.14347804
0000d0 3e 2c 12 bf 1b 6f 19 bf ce e3 6a bd 48 56 b7 3d
       -0.5709876 -0.5993516 -0.057346158 0.08952004
0000e0 11 98 70 3e fa 85 d5 3f fc 7c 55 bd d7 db 7f bd
       0.23495509 1.6681511 -0.052121148 -0.062465515
0000f0 92 db 3f bf 6a 29 e8 bf 4a e7 06 bd 18 9a 2e bd
       -0.7494441 -1.8137639 -0.03293542 -0.042627424
000100 3a ee 83 3e 8f af f4 3f 6b a6 15 bd 26 97 a9 3e
       0.2576769 1.9116076 -0.03653566 0.3312313
000110 6a 55 5e bf e6 a0 8e c0 49 48 21 3c 81 0d d0 3e
       -0.8684908 -4.457141 0.009843894 0.40635303
000120 f0 43 5a 3f 3f 02 eb be 16 1d 5c bd 45 64 4f bf
       0.85259914 -0.4590015 -0.053738676 -0.81012374
000130 0b c9 94 3e 9b 7b 0c c0 6f 16 f5 bc 7c 2c 51 bf
       0.29059634 -2.1950443 -0.029917924 -0.817085
000140 f5 31 54 3f 3e 74 ed be 2e d8 20 be b4 de c3 be
       0.8288873 -0.46377748 -0.15707466 -0.38255847
000150 5c 5e 41 3f d0 4f 48 c0 2b f4 f2 bd 86 16 9f be
       0.75534606 -3.1298714 -0.118629776 -0.31071872
000160 9c 52 83 3f fa c2 d9 be 8b 69 90 bd ba d7 cb 3e
       1.0259585 -0.42531568 -0.07051381 0.39813024
000170 e0 4e 2e be 0a 9e 50 3f 89 b9 d4 3c 17 fa da 3e
       -0.17022276 0.8149115 0.025967376 0.42768928
000180 fb b1 46 be 60 46 7b be 8e 66 82 3d 1e 4c 43 bc
       -0.19403832 -0.24538565 0.06367217 -0.011920003
000190 cb 05 68 3f ab c9 0c 3e 97 54 2c bd d8 57 ac bd
       0.9063384 0.13748805 -0.04207286 -0.08415192
0001a0 28 af 21 bc bd 1b ca be 81 8c f0 3a e2 27 a2 bd
       -0.009868421 -0.39474288 0.001835242 -0.07917763
0001b0 10 e6 10 40 2e 0d 42 3e e1 1d c3 3c 25 72 42 bc
       2.264042 0.1895034 0.023817958 -0.0118680345
0001c0 fd 09 02 bd 8e 97 01 bf 82 6c b5 bb 8c 5e 2c 3e
       -0.031747807 -0.5062188 -0.005536617 0.16832942
0001d0 10 72 85 40 de 58 32 bd 45 9c 07 3d e3 42 72 3e
       4.1701736 -0.04354178 0.033108015 0.23658328
0001e0 08 24 ee 3e 13 bf e5 3e 14 4b 17 3e 8c 8e 0e bf
       0.46511865 0.4487234 0.14774734 -0.5568626
0001f0 d5 55 5e be d6 5e bd bf af 62 67 3e 0c e4 09 bf
       -0.2171243 -1.4794567 0.22596239 -0.53863597
000200 96 93 f8 3e 91 c1 75 3e 1e 22 a0 be 92 dc 9d be
       0.485501 0.23999621 -0.3127603 -0.30832344
000210 3c d5 c3 be e7 8b 03 c0 82 0d 7b be c9 8f 90 be
       -0.38248622 -2.055414 -0.24516872 -0.282347
000220 e4 fb 4c 3f 31 83 2a bd f6 4c e8 bd ae fa dd bd
       0.80071855 -0.04162902 -0.11342804 -0.10838829
000230 05 c2 e9 be e3 53 07 c0 cf 6b d7 bd 87 d0 09 be
       -0.45655838 -2.114495 -0.1051861 -0.13458453
000240 bb 7e 0a 3f a8 ef 79 40 93 8d 1a bd a6 8d c8 3f
       0.54099625 3.9052525 -0.037732672 1.5668228
000250 bf b2 5d 3e bf 6c 73 bf db 79 28 bc f5 02 d4 3f
       0.21650217 -0.9508781 -0.010282959 1.6563402
000260 c1 e7 47 3f cb 0c 97 40 3a f9 d2 3d d7 53 35 bf
       0.78088003 4.7203116 0.103014424 -0.70831054
000270 c0 2d a3 3e 07 f9 14 c0 9d 76 a7 3d d9 37 33 bf
       0.31870842 -2.3276994 0.081769206 -0.7000709
000280 fd 41 23 3f 11 ae 6d 40 7b 9f 9b bd d5 01 c8 bf
       0.63772565 3.7137492 -0.07598778 -1.5625559
000290 ae 48 c4 bd 73 8b 18 bf e5 d3 9f bd b7 11 c4 bf
       -0.09584175 -0.5958778 -0.078040875 -1.5317906
0002a0 df 12 12 3f 1a 99 b1 3e 5d 39 69 bd e6 9c a3 bd
       0.57060045 0.3468712 -0.05693947 -0.079889104
0002b0 9f fa 2b 3e 61 ec 9b bf eb cd ed bc 3c b8 00 be
       0.16794823 -1.2181512 -0.029028853 -0.1257028
0002c0 fe 70 42 3f 88 ef 05 3f cf b1 88 bd 85 91 a2 bc
       0.7595366 0.5231862 -0.06674539 -0.01984478
0002d0 80 31 74 3d e8 4f a5 bf f2 74 5a bd ef 1e 4a bc
       0.05961752 -1.291501 -0.053334184 -0.012336477
0002e0 27 ba 5d 3f 9c 62 f9 3e 17 ce 4e bd 52 a9 e0 bd
       0.8661217 0.48708045 -0.05048951 -0.10969795
0002f0 f2 2d 33 bd a3 8d 9c bf bc 74 d5 3c 70 49 04 be
       -0.04374499 -1.2230724 0.02605664 -0.12918639
000300 9d 65 88 3d 3a 18 e8 be 22 c0 02 3d f7 d9 90 3e
       0.06660006 -0.45330983 0.031921513 0.28291294
000310 76 6d 74 40 71 61 3d bf 0f cd 0c 3d 68 dd 83 3e
       3.819181 -0.7397681 0.034375247 0.25754857
000320 6f cf c1 3d ca ed 11 bf fc f2 29 3c 8a 8a 89 bc
       0.09463393 -0.5700346 0.010372873 -0.016789693
000330 43 41 03 40 2b f6 12 3f 18 93 fa 3c 2a 41 02 3c
       2.0508583 0.5740687 0.030587718 0.007950107
000340 ba dd 67 3e 7a 1f b2 be 7c d1 ce 3c d4 ce 98 bd
       0.22643176 -0.3478964 0.025246374 -0.07461324
000350 7f f2 d5 bb 44 c4 ea 3f 90 c5 56 bd c7 44 10 be
       -0.006529152 1.8341146 -0.052434504 -0.14088736
000360 c2 7e 2b 3f 90 47 0b 3e 04 cf 6a bd 10 62 81 bc
       0.6699029 0.13601518 -0.05732633 -0.01579383
000370 ff a4 e2 be 6e 81 c3 bf 85 25 86 bd ba 5e eb 3a
       -0.44266507 -1.5273874 -0.06550125 0.0017957308
000380 d0 57 18 3f 6e 18 c4 3d e1 ef c0 3d c0 dc 26 bd
       0.5950899 0.09574972 0.09420753 -0.040737867
000390 4d c2 a4 be 01 ea cc bf 56 73 48 3d dd 65 e3 bd
       -0.3217949 -1.6008912 0.048938118 -0.11103413
0003a0 c6 98 43 3f 03 83 bd 3d 2b 22 01 bd f5 e2 69 be
       0.7640499 0.09253504 -0.031526726 -0.22840483
0003b0 ae 9e 8d be 7a 6d e2 bf 5d fe 85 3d 52 51 82 be
       -0.27660125 -1.768966 0.065426566 -0.25452667
0003c0 82 c0 1a 3f 6d c7 26 3f 4a 42 0a be 4f 44 29 bd
       0.60449994 0.6514805 -0.1350185 -0.04132491
0003d0 a7 35 a5 be 80 24 99 bf 85 a7 35 be 02 9e 6c 3c
       -0.32267496 -1.1964264 -0.17739685 0.014441969
0003e0 d8 f8 42 3f f1 7d 26 3f 63 d2 01 3d 18 88 d3 be
       0.76160955 0.6503592 0.03169478 -0.4131477
0003f0 af a3 16 be 41 6d 00 c0 13 72 1e bc 65 88 c8 be
       -0.14710878 -2.0066683 -0.009670752 -0.3916656

fc1.bias f4 [256]
000000 78 72 80 3c 31 0a 0f bf 74 8c e8 be 10 d4 de 3d
       0.015679583 -0.55874926 -0.45419657 0.108802915
000010 35 ec ac bf 20 46 63 bf 06 c2 3c 3f 99 d0 4c bf
       -1.3509585 -0.8877888 0.73733556 -0.80005795
000020 38 22 f5 bf 5b f6 5d bf 6b 09 89 bf 64 c7 da be
       -1.9151068 -0.86704034 -1.0705999 -0.42730248
000030 66 1a 3c bf 92 cc 2e 3d 5a 57 60 bf c3 e3 17 bf
       -0.7347778 0.042675562 -0.8763329 -0.5933191
000040 1c 0d 6a bf e5 68 84 bf ac 1b 75 be 62 73 97 bf
       -0.91426253 -1.0344511 -0.23936337 -1.1832087
000050 f3 1a ba bf 6d e0 89 bf 45 d4 60 bf 25 b2 90 bf
       -1.4539474 -1.0771614 -0.878239 -1.1304365
000060 a3 a5 58 3f df 6d d5 bf ec d4 17 c0 6e 5e a6 bf
       0.8462774 -1.6674155 -2.3723707 -1.2997568
000070 5c b8 8f bf c6 6e cc be 8e d3 09 3f 7b 4f e5 bf
       -1.1228137 -0.39928263 0.5383843 -1.791488
000080 2e 59 e4 bd 8c 0a 8e bf 66 24 74 bf cb 04 c6 be
       -0.11149822 -1.1096969 -0.9536804 -0.38675532
000090 7e 95 f7 be da d2 d7 3e 29 5a fe bf 84 ab a6 bf
       -0.4835624 0.42153054 -1.9871265 -1.3021092
0000a0 9f 58 8c bf 99 6f 96 bf 57 29 64 3e 8d 3d 96 bf
       -1.0964545 -1.1752807 0.22281395 -1.1737534
0000b0 5d 86 bf 3e 8d 35 8b bf 77 0f 24 bf 9b 02 30 bf
       0.374072 -1.0875717 -0.640861 -0.68753976
0000c0 e9 8a 32 3f d7 ef 1e 40 8d 45 a9 bf 57 c6 09 3f
       0.6974321 2.4833887 -1.322435 0.5381827
0000d0 e4 a2 9f bf db 16 8b bf 95 4c 60 bf 55 cc 9b 3f
       -1.2471585 -1.086635 -0.87616855 1.2171732
0000e0 09 a2 6c be 4b 13 bb bf c8 a2 e8 3e a7 09 19 be
       -0.23108687 -1.4615263 0.45436692 -0.14945088
0000f0 ab 81 9f 3f aa 1e 48 bf b6 23 21 bf ba 32 44 bf
       1.2461447 -0.7817179 -0.62945116 -0.766399
000100 37 78 02 c0 65 69 15 bf d8 2f a0 bf b7 a4 26 bf
       -2.0385873 -0.58363944 -1.2514601 -0.65095085
000110 bf f9 d9 be 36 4e 91 bf 69 5c 97 bd 0c 0c 40 bf
       -0.42573354 -1.1351993 -0.07390673 -0.7501838
000120 1f f3 0a bf c0 64 22 bf 8a 6a 0d 3f fb be c7 3f
       -0.54277223 -0.6343498 0.5524069 1.5605158
000130 a3 35 93 bf 88 9a 22 be 20 42 87 bf 75 48 d1 bf
       -1.1500744 -0.15879261 -1.0567055 -1.6350237
000140 9c 41 9e be 6b e0 0f bf 18 23 af 3e 93 60 13 bf
       -0.3090943 -0.5620181 0.34206462 -0.57569236
000150 c4 a9 87 3e 1f 8b c4 be 8c dd af bf 12 31 36 bf
       0.26496708 -0.3838739 -1.3739486 -0.71168625
000160 a0 0a c2 bf ba 7e df bf 61 a6 84 bf 75 32 91 bf
       -1.5159492 -1.7460549 -1.0363275 -1.1343523
000170 68 65 ae bf 69 1e b9 bf 18 5b 98 bf df 82 a7 bf
       -1.3624697 -1.4462405 -1.19028 -1.3086814
000180 01 a4 fa be 5c c6 8c bf 62 1c 92 bf af af 59 bf
       -0.4895325 -1.0998034 -1.1414912 -0.85033697
000190 7c 20 3d bf a3 f4 7b bf d9 eb e2 3e a7 43 3a bf
       -0.7387769 -0.9842016 0.44320562 -0.7275948
0001a0 12 42 9f bf e0 9e 7b bf 46 47 8f bf 3d 11 da be
       -1.2442038 -0.982893 -1.1193626 -0.42591277
0001b0 28 1b 81 bf b3 5c 61 bf 13 8d 0a 40 74 37 a3 3f
       -1.0086412 -0.8803207 2.1648605 1.2751298
0001c0 3f 9b 57 be 3f 15 df bf 13 dd 5a bf 3b f9 0f c0
       -0.21055315 -1.7428359 -0.8549358 -2.2495868
0001d0 44 dc 8f 3e 79 68 35 c0 75 c4 81 bf 2e ec 09 bf
       0.28097737 -2.8345015 -1.0138079 -0.53876007
0001e0 63 d2 7e bf 54 4a a5 bf e0 9d 82 bf e8 91 47 bf
       -0.99539775 -1.2913308 -1.020443 -0.7795701
0001f0 bd f3 f4 bf 22 c2 2f bf 48 0e 14 bf 37 3e 16 bf
       -1.9136883 -0.686556 -0.5783429 -0.5868868
000200 f4 31 8f bf c9 97 9f bf 51 db 8e bf 8b fb e9 bf
       -1.118712 -1.2468196 -1.116068 -1.827989
000210 f2 d4 5f bf 54 b4 38 bf 54 cf 00 3f 18 c2 38 bf
       -0.87434304 -0.7215016 0.5031636 -0.72171164
000220 b4 e5 60 bf 75 58 d2 be 25 26 30 bf 02 f3 0a c0
       -0.878505 -0.41083112 -0.68808204 -2.171082
000230 c3 a1 43 bf b1 08 da be 88 63 10 3f d3 f5 4a 3f
       -0.76418704 -0.42584756 0.5640187 0.7928135
000240 a6 df e6 3f f1 e2 26 bf f4 af 16 bf d4 9f 95 bf
       1.8037002 -0.65190035 -0.58862233 -1.1689401
000250 60 b0 55 bf 77 97 46 bf cb 21 60 bf 20 36 a8 be
       -0.8347225 -0.77574867 -0.87551564 -0.32853794
000260 9c 0f 87 bd a8 45 8d bf 8c 48 75 40 73 33 be 3e
       -0.06594774 -1.1036882 3.832553 0.37148628
000270 e2 ca 9f 3f 84 bc a7 bf 52 78 23 3d a3 1d 85 bf
       1.248379 -1.3104405 0.03990967 -1.039967
000280 04 b5 58 3d 6a 02 77 bf 30 14 8f bf 82 7d 5b bf
       0.052907005 -0.9648806 -1.1178036 -0.85738385
000290 30 13 3d bf 97 19 62 bf ee 6f 55 3f 8b 7b 44 bf
       -0.738574 -0.88320297 0.83373916 -0.7675101
0002a0 52 40 2a bf bd 9e 69 3e a0 6b 3e bf 3a 03 07 c0
       -0.66504395 0.2281446 -0.7438297 -2.109572
0002b0 78 19 85 3f f2 9f a3 bf 01 f2 a0 bf bd 68 e7 3e
       1.0398397 -1.2783186 -1.2573854 0.45197096
0002c0 b0 c6 6f bf 40 7f 3f c0 2c 7a 8d bf ea 96 44 bf
       -0.9366255 -2.9921417 -1.1052909 -0.76792777
0002d0 58 79 15 c0 60 cc b5 be a2 3e 03 bf a6 38 6e bf
       -2.3355312 -0.35507488 -0.51267445 -0.9305519
0002e0 f2 00 23 be 72 0e 62 bf 6f 9a b5 3f b5 4e 6d bf
       -0.1591833 -0.8830329 1.4187754 -0.9269822
0002f0 21 41 d3 bf 0d 4d 2e 3e 23 fd fa 3f 7a 53 44 bf
       -1.6504251 0.1702158 1.9608501 -0.76689875
000300 b8 d4 ca bd 6f e2 0f c0 7a 2e f2 bf 70 dd cc be
       -0.09903854 -2.2481954 -1.8920434 -0.40012693
000310 c4 75 9a bf 1b f6 81 bf 3a 23 e5 3f 35 48 d8 bf
       -1.2067189 -1.015323 1.7901375 -1.6897036
000320 1b f9 c5 be 74 9a c7 be e0 a0 52 bf b2 b3 6d 3e
       -0.38666615 -0.38985026 -0.82276726 0.2321308
000330 8b c6 9b bf 89 e3 df bd d7 eb 68 bf 92 22 a1 bd
       -1.2169966 -0.10932071 -0.90984863 -0.07867922
000340 c0 63 3f bc a0 ad 0e 3f 97 d7 89 bf e4 0d 96 bf
       -0.011681497 0.5573368 -1.0768918 -1.1722989
000350 54 e3 90 bf ad 72 3d 3e f8 23 12 3f 53 1e 52 bf
       -1.1319375 0.18500777 0.57086134 -0.8207752
000360 29 67 88 3f a0 0c 8f 3e fd f4 a8 bf 22 ec 42 bf
       1.0656482 0.2793932 -1.3199764 -0.7614156
000370 f6 3b 2a bf 91 cb 6d bf 93 67 82 bf 23 a9 a2 bf
       -0.66497743 -0.9288874 -1.0187858 -1.2707866
000380 49 7e 02 bf 2c 8e 22 be 0a 35 4e bf 21 48 94 3d
       -0.50973946 -0.15874547 -0.8054968 0.0724032
000390 22 33 61 bf 4c ba 8a bf c2 9b 0c 40 05 d1 59 bf
       -0.8796865 -1.0838103 2.1970067 -0.85084563
0003a0 9e d5 7a bf 68 40 41 c0 d0 20 5f bf 1a 93 5b be
       -0.97982204 -3.019556 -0.8715944 -0.21442834
0003b0 3d 61 4e bf e2 ae 79 3f c6 05 52 bf 98 b6 a9 bd
       -0.80617124 0.97532475 -0.8204006 -0.0828678
0003c0 14 a3 8d bf 67 be c8 bf e2 95 09 bf cd 61 2d bf
       -1.1065392 -1.5683106 -0.5374433 -0.6772736
0003d0 b3 a9 6f bf f2 b1 93 3f 14 d3 ef 3e 61 fe 2d bf
       -0.93618315 1.153868 0.46840727 -0.67966276
0003e0 c3 f7 55 c0 ab ff 56 bf 64 0e ee be be 8f 9d bf
       -3.3432472 -0.8398387 -0.46495354 -1.2309492
0003f0 22 67 45 bf 40 67 52 bf c0 6d 9a bf f4 d9 5a be
       -0.77110493 -0.82188797 -1.2064743 -0.21372205

fc2.weight f4 [128, 256]
000000 47 10 ec bd 97 aa eb bd c3 52 f3 bd 86 2c 8e bd
       -0.11526542 -0.11507147 -0.1188102 -0.06942086
000010 b2 3b 23 bd 2c ae c2 3c ad 48 9c bd e2 92 35 3d
       -0.03985185 0.023764692 -0.07631049 0.04432953
000020 9a d5 57 be a6 5b 28 3e e2 bc 89 be 84 2c 83 bd
       -0.21077576 0.16441211 -0.2690192 -0.06404975
000030 c7 ea fe bd 62 79 5c bd 44 aa 21 3e 5e 37 2e 3c
       -0.12447124 -0.053826697 0.15787607 0.010633318
000040 79 94 25 3d 42 7b 04 3e 70 0b e4 bd 14 e9 eb bd
       0.040424798 0.12937644 -0.11134994 -0.115190655
000050 bb 14 c3 bd f4 fd da 3d 83 96 f5 bd da a4 a4 3c
       -0.095254384 0.10692969 -0.119915985 0.020098139
000060 0c e2 ea bd ba 05 c7 bd 8d 70 fa bd 27 0e 41 bd
       -0.11468896 -0.09717889 -0.122284986 -0.047132637
000070 5e 69 a9 bd 8d e2 85 bc 30 09 7a 3b e3 8c b7 bd
       -0.0827205 -0.01634338 0.0038152449 -0.08962419
000080 b1 ca 94 3d 9c 7b 9f 3d 1f 0b 8f bd 69 f7 f9 bd
       0.07265223 0.077872485 -0.06984543 -0.12205393
000090 57 e5 ae 3d 49 7d aa bd cf 23 2d bd c0 f5 ed 3d
       0.08539837 -0.083246775 -0.042270478 0.11619139
0000a0 c5 1b f9 bd 06 64 6b 3d 42 93 fe 3d 0d d4 ab bd
       -0.121635 0.057468437 0.12430431 -0.08390055
0000b0 44 78 48 3d 8d 64 a1 3d 95 12 4b 3d 7a ef e4 bd
       0.04894282 0.07880507 0.049578268 -0.11178489
0000c0 3e 99 43 3d b5 cf f3 bd 44 51 b2 3c 21 5f 9e 3d
       0.047753565 -0.11904851 0.021767266 0.07732988
0000d0 f5 00 43 bc 36 a7 1b bd 93 7d b0 3d c7 9c 82 bd
       -0.011902084 -0.03800126 0.086177014 -0.06377559
0000e0 43 1e ba bd 85 09 30 be 58 e5 68 be e8 f2 cf bc
       -0.09087803 -0.17191131 -0.22743738 -0.025384381
0000f0 57 04 6f bd 4d a8 8c 3c 24 3c e4 3c 0b 62 cf bc
       -0.05835375 0.017170096 0.027860709 -0.025315305
000100 6d be b2 3c 0c 81 fa 3d 8b 85 91 bd 5d 1e c3 bc
       0.021819318 0.12231645 -0.071055494 -0.02381819
000110 ce e2 00 3d 37 91 8f bd be 36 62 3d cd d4 e1 bd
       0.031466298 -0.070101194 0.055227987 -0.11026917
000120 04 f1 00 be a6 a7 0f bd 48 a9 cf bd 58 eb e2 bd
       -0.1259194 -0.03507199 -0.1013971 -0.110800445
000130 29 c5 4a be 9e 38 75 bd c1 43 27 bd 7e d9 5d bd
       -0.19801773 -0.059868447 -0.0408361 -0.054162495
000140 3c 8e 1d bd 87 6c 86 be 5d c2 4f be 40 6d 34 3d
       -0.038465723 -0.26254675 -0.20288987 0.0440495
000150 b5 61 31 3e e5 26 2c be 7f 28 61 be f7 73 bd bd
       0.17322429 -0.16811712 -0.21988104 -0.09250634
000160 87 85 41 3d e7 72 d8 bd 69 27 aa bd 7c 2b 87 bd
       0.047246482 -0.10568791 -0.08308298 -0.06600091
000170 c5 b1 50 ba 1c e3 5a 3c 66 6b ba 3d e8 45 36 bd
       -0.000796106 0.013359811 0.09102516 -0.04450026
000180 61 74 26 bc 37 bc 65 bd da 5d 12 bd ab 1b 50 be
       -0.010159583 -0.0560877 -0.035734035 -0.20323054
000190 a6 67 ae bd 80 46 90 ba 5b eb 82 bc 3c 84 70 bd
       -0.08515863 -0.0011007339 -0.015981367 -0.05871986
0001a0 e5 a8 93 3d 98 4f 39 be ec b8 90 bd 23 60 f3 3d
       0.072099485 -0.18096769 -0.07066521 0.11883571
0001b0 b2 76 56 bd 6c ea 6e 3d 2c 45 cb 3c 3f 98 8d be
       -0.05235929 0.05832903 0.024813257 -0.27655217
0001c0 fc 4f 57 3d 66 c8 fd 3d f3 c0 37 be b6 4c 02 3c
       0.052566513 0.123917386 -0.17944698 0.00795286
0001d0 1d d7 82 be f4 90 d5 3d 38 43 b5 bb 36 62 41 3d
       -0.25554743 0.10428038 -0.0055316947 0.047212802
0001e0 8e 5b f6 bd 49 cd 27 bd 73 32 0a be b4 5a 86 bd
       -0.120291814 -0.04096726 -0.13495807 -0.06560269
0001f0 dd e5 9b bd a2 5b 9a 3d 0f a8 40 ba eb a1 9e 3d
       -0.07612202 0.07537009 -0.00073492614 0.07745727
000200 ea a6 10 3e 18 e4 5e 3d 99 b4 8e bd 49 a8 f5 bb
       0.14126173 0.054416746 -0.0696804 -0.007496868
000210 33 81 10 be 6b 0f 41 3d bb 36 b3 bc f1 db b0 3b
       -0.14111786 0.047133844 -0.021876683 0.005397313
000220 08 c6 a6 3d f4 e3 31 be 48 ed d9 bd 54 9c 19 3b
       0.0814324 -0.17372113 -0.10640961 0.0023439126
000230 9f 94 d8 bd b5 22 37 bd 03 3c 5f 3d f6 b0 1b be
       -0.10575222 -0.044710834 0.05450059 -0.15204224
000240 44 a5 09 3d 03 b3 15 3d c1 6b fe bc d6 ea 54 bc
       0.033604875 0.036547672 -0.03105724 -0.012995442
000250 44 93 01 bd d6 39 f9 3b fb 56 ca 3c 75 be ee bd
       -0.031634584 0.0076057715 0.024699679 -0.116574205
000260 2c 0e 32 3d 03 c8 c1 bd 74 d1 59 3c c4 d1 30 bc
       0.043470547 -0.09461977 0.013294566 -0.0107921995
000270 c0 a7 52 be 62 09 d0 bd 2c 6f bb bc 33 cd ae 3d
       -0.20571804 -0.1015804 -0.02288016 0.085352324
000280 ea 2b 25 bd a9 4b bf bd 94 c4 d7 ba 1b 51 9f bd
       -0.040325083 -0.09340603 -0.0016461783 -0.077791415
000290 af 4b 87 3d 7b 76 14 be 34 63 69 be 87 91 70 3c
       0.066062324 -0.14498322 -0.22791749 0.014683134
0002a0 c0 26 de 3d ae 69 7e bd c3 58 44 bd c3 7e f9 bd
       0.10847235 -0.062112503 -0.047936212 -0.12182381
0002b0 9f f7 2f be 5a ec 30 bd 5d 9e 36 3d 4c b5 8e be
       -0.17184304 -0.043194152 0.04458462 -0.27872694
0002c0 d5 8c 57 bd 28 83 2e be 82 27 18 3c f9 ab 6d 3d
       -0.052624542 -0.1704222 0.009286763 0.058025334
0002d0 a0 ae fe 3d 7a 28 f9 bc de 78 94 bc c9 fc b3 3c
       0.12435651 -0.030414809 -0.01812404 0.021971123
0002e0 3c 1e a5 b9 0c b1 92 bd 88 38 a1 bd c4 ed cd bc
       -0.0003149378 -0.07162675 -0.078721106 -0.02513779
0002f0 d6 19 70 3c f5 d4 0b bd 65 9c 49 be 27 c2 9f bd
       0.014654597 -0.03413864 -0.19688566 -0.078007035
000300 36 39 0b be c6 25 11 be 24 5f 98 3d 67 ac 58 3d
       -0.13596043 -0.14174566 0.07440022 0.05289879
000310 f0 c4 60 be ba 1c 9a bd 96 82 97 bd df a9 ff bc
       -0.21950126 -0.075250104 -0.07397954 -0.03120893
000320 4a 49 12 3d 08 50 1d be a0 98 eb bd a4 ae db bc
       0.035714425 -0.15362561 -0.1150372 -0.026816674
000330 c4 b5 57 3d b0 32 a2 3d 95 49 6d be af 7c b8 bc
       0.05266358 0.07919824 -0.231726 -0.022520391
000340 bc 5f e9 bc ba 53 92 bd a5 55 71 bd 23 c1 8f bc
       -0.028488033 -0.07144876 -0.058919568 -0.01754815
000350 15 c2 11 be f1 69 d7 bd e2 db 8b 3c 01 98 03 bd
       -0.14234193 -0.105182536 0.017072622 -0.032127384
000360 b4 21 df b9 73 a8 75 3d 9c 35 30 be 85 13 27 be
       -0.00042558985 0.0599751 -0.1720795 -0.1631604
000370 ab 47 d7 bd 2d d5 90 3d 45 5f 24 bd 75 5d 3f 3e
       -0.105117165 0.0707191 -0.04012992 0.18687995
000380 a6 d0 92 bd 54 4d 4c bd 25 86 c1 be e4 2c 0d be
       -0.07168703 -0.049878433 -0.37797657 -0.13786656
000390 07 d4 ce bd 50 c5 3b be 57 45 c0 39 05 b9 3b be
       -0.10099035 -0.18336987 0.00036672756 -0.18332298
0003a0 7c 32 23 be 35 e0 8b bd 5a 24 07 be 1e 5f 22 3d
       -0.15937227 -0.068298735 -0.13197461 0.039641492
0003b0 f0 6e 89 bd bd fc a6 bd 32 16 50 3d 76 20 2c be
       -0.06710613 -0.08153675 0.050802417 -0.16809258
0003c0 d2 64 20 be 14 b0 d4 bd 61 d8 3c 3e 05 2b b3 3d
       -0.1566346 -0.10385147 0.18441917 0.0874844
0003d0 bb 53 9f 3d 1d 5a 43 bd fd c2 80 bd d6 ff f5 3c
       0.07779642 -0.04769336 -0.06287191 0.030029219
0003e0 1d 3f fb bb 61 f3 7c bd c1 5d 1c bd fa fa ae 3d
       -0.007667436 -0.06175554 -0.03817535 0.08543964
0003f0 f8 db 84 bd 32 50 9b 3d 0b 8a 77 bc 44 df 22 be
       -0.06487268 0.075836554 -0.015108596 -0.15905482

fc2.bias f4 [128]
000000 2e 79 33 be 57 e7 48 be 5c c5 3c 3c e5 1a 02 c0
       -0.17526695 -0.19619499 0.0115216635 -2.0328915
000010 39 4a c8 be 87 2f 43 bf 73 07 8f bf b6 3a ea bf
       -0.39119127 -0.76244396 -1.1174148 -1.8299167
000020 ad ae d6 bf 8c 0a 6a bd 7c ce 91 bf 9a 31 84 bf
       -1.6772057 -0.057138965 -1.1391139 -1.0327637
000030 ca 9f 11 c0 8a 45 40 bf d8 c7 07 bf 39 8d a4 3c
       -2.2753778 -0.7510611 -0.5303931 0.020086871
000040 d0 90 45 be 35 ac 24 be e1 bb a2 3f 89 22 32 be
       -0.19293523 -0.16081317 1.2713586 -0.17395987
000050 02 60 57 be 7b 53 23 be f1 db e6 bf f4 3e b7 bd
       -0.21032718 -0.15949814 -1.8035871 -0.08947554
000060 ff de 0d bf 17 af f0 bd 82 28 8d be 0c 72 b6 3f
       -0.5541839 -0.11752146 -0.27569968 1.4253554
000070 59 58 98 bd 91 6e 43 be 6e 42 ee bc ea 47 fd bd
       -0.07438726 -0.19085146 -0.02908441 -0.12367232
000080 14 0d 04 c0 6f a0 2e bd 63 74 59 be e2 00 05 bf
       -2.0632982 -0.04263347 -0.21235804 -0.5195447
000090 56 ad 03 c0 0e b3 53 c0 6a 52 00 be 6d 5a be be
       -2.0574546 -3.3078036 -0.12531438 -0.37178364
0000a0 75 6b 51 bd b5 49 68 bf a9 fa dc bf b8 b4 cf bf
       -0.05112787 -0.9073747 -1.7263995 -1.6227026
0000b0 59 9e ae bc eb 67 57 be 02 34 78 be 46 d8 44 be
       -0.02131574 -0.21035735 -0.2423859 -0.19223127
0000c0 bd 05 04 be 14 da 5d be 07 65 58 bf ab a7 16 bf
       -0.12892814 -0.21665221 -0.84529155 -0.5884959
0000d0 0f ac 61 3f 5c 98 94 3f 75 4c 5b bf 47 bc 89 bf
       0.88153166 1.1608996 -0.8566354 -1.0760583
0000e0 7c 45 21 be 2d ba f1 bc 73 45 af be 51 a9 aa be
       -0.15749162 -0.02950772 -0.34232673 -0.33332303
0000f0 90 35 86 be 3a 24 58 bf 1e e0 92 be 35 72 49 bf
       -0.2621274 -0.8443028 -0.28686613 -0.7868989
000100 96 67 16 bf b2 1f 0d be 00 cf 76 3e 1e 2c 00 be
       -0.5875181 -0.13781622 0.24102402 -0.1251683
000110 bd 1d 12 c0 ed 69 da bb ce 19 c2 bf 6a b3 1e be
       -2.283065 -0.0066654594 -1.5164125 -0.15498129
000120 24 19 ec be a9 d7 f9 bf 7c 9b 6d be 9d 5e c9 bd
       -0.4611293 -1.9518939 -0.23203844 -0.09832499
000130 57 d4 99 be 39 ae ac bf 3a 5a a6 be a1 6c 95 bf
       -0.30044815 -1.3490669 -0.32490712 -1.1673776
000140 a8 84 26 be 9e 43 be 3f 22 5c 9c bf 45 01 32 be
       -0.16261542 1.4864385 -1.2215617 -0.17383297
000150 41 27 a5 bc 4f 76 27 3f 65 91 89 bd 0b 14 e8 bd
       -0.02016032 0.654149 -0.06717185 -0.11331948
000160 f5 99 df 3e b8 61 1c 3f 84 8d b2 be 6b 91 ed 3d
       0.43672147 0.61086607 -0.34873593 0.11600002
000170 e2 41 0b bd 34 90 05 c0 6f 36 08 c0 af 3e be bd
       -0.033998378 -2.0869265 -2.1283224 -0.092893
000180 f7 d5 06 be d3 41 63 bd 43 72 59 3f 08 10 82 c0
       -0.13167559 -0.055482697 0.84939975 -4.064457
000190 0b 51 e1 bc 9f 2c bd 3e a1 ec 25 be aa 9a ba 3e
       -0.027504465 0.36948106 -0.16203548 0.36446124
0001a0 49 2d 15 be 7c 50 3a bf 4b 99 85 bf 7f 90 ff 3d
       -0.14568056 -0.7277906 -1.0437406 0.12478732
0001b0 91 5c 37 bf b9 e4 98 bf 6a d1 5a bf 42 b1 a9 3f
       -0.7162562 -1.1944801 -0.8547579 1.325722
0001c0 4e f0 80 be 92 38 87 bf 02 23 96 bd d8 2e 87 bd
       -0.25183338 -1.0564139 -0.07330896 -0.066007316
0001d0 00 02 ff be 19 4a 01 c0 2f df 2a 3f c3 e9 37 be
       -0.49806213 -2.0201476 0.667468 -0.17960267
0001e0 08 44 5f bc 34 05 e6 3c e8 cd bf bf 85 58 68 be
       -0.01362706 0.028078653 -1.4984713 -0.22690018
0001f0 35 93 6f bf df 9b 21 be 17 99 b9 bf 38 31 8d 3f
       -0.93583995 -0.15782116 -1.4499844 1.1030645

fc3.weight f4 [2, 128]
000000 e0 e9 8a bc dc c4 03 be 8a 17 14 bd 8c a1 53 be
       -0.016957223 -0.12868065 -0.03615526 -0.20667094
000010 11 2c bd 3d bb 13 b9 be 52 1f 50 be 26 0f d4 3e
       0.092369206 -0.36147866 -0.20324448 0.41417807
000020 28 90 67 3d fe 93 22 bc d6 aa 8e bd da 1d 42 be
       0.056533962 -0.009922979 -0.06966178 -0.189567
000030 92 53 0d bf 6e f7 00 bf 4f 59 ba bd c3 7a 9f bb
       -0.55205643 -0.5037755 -0.090990655 -0.0048669293
000040 cd a1 1b 3c 36 a9 95 3d ca 96 de 3d b7 38 9f bd
       0.0094990255 0.07307665 0.108686045 -0.077744894
000050 6d 02 8a bd 6b 87 66 3d 20 13 92 bf 63 4a cc bb
       -0.06738744 0.05628149 -1.1412086 -0.0062344535
000060 77 f6 3f be 76 05 bf bb 51 55 21 3d c3 4b 1a be
       -0.18746363 -0.0058295084 0.039388005 -0.15067963
000070 57 4e 87 bc a3 6d d0 bb b4 9a 27 be b7 7a 58 3c
       -0.016516848 -0.006360726 -0.16367608 0.013212851
000080 27 45 7a be ed d7 25 3c 94 2d 20 3e 8f 6b e3 3d
       -0.24440442 0.0101222815 0.15642387 0.111044995
000090 4c 9e 0f 3d 2a 77 69 be 36 a5 6f 3c e0 10 a1 bc
       0.035063073 -0.22799364 0.014626792 -0.019661367
0000a0 0e 8d ee 3d ec eb 8f 3d 02 0e 9e 3f 91 4a 40 bd
       0.11647998 0.070274204 1.2348025 -0.046946112
0000b0 8d 27 9e 3c 2a af bb bd 65 34 09 3d d2 13 07 3e
       0.019305969 -0.09164269 0.033497233 0.13191155
0000c0 57 ef 88 bc 4d 7d 3e bf 0f d8 e2 bc c8 09 10 be
       -0.016715689 -0.74409944 -0.027690915 -0.14066231
0000d0 ea 9b 5d bb 5d 19 a2 bf e9 c5 05 bf 33 37 da bd
       -0.0033814856 -1.266399 -0.5225511 -0.1065506
0000e0 3c d9 4b bc 23 e2 c6 bd 55 ba b7 bc 9b ea 1a be
       -0.012441929 -0.09711101 -0.022427717 -0.15128557
0000f0 60 55 67 3d 6a c2 2e bf d7 96 bd 3c f5 27 9d be
       0.056477904 -0.682654 0.023143215 -0.30694547
000100 78 00 e9 bf 03 c0 a9 be 00 03 89 3d c6 e5 24 3d
       -1.8203268 -0.33154306 0.06690025 0.04025819
000110 59 02 0a bf 9c 51 33 bc a7 30 2c be b1 07 eb bd
       -0.5390983 -0.01094475 -0.16815434 -0.114760764
000120 5c 86 6b bd f7 a2 9e be d7 22 9a bc 26 96 96 3c
       -0.057501182 -0.30983707 -0.018815441 0.018382143
000130 1e d2 aa bd 86 68 35 bf 36 49 9d 3d ba 76 c8 bd
       -0.08340858 -0.70862615 0.076799795 -0.0978827
000140 83 74 89 3a 30 a0 78 3e ac 48 a1 be 91 71 79 bd
       0.0010486994 0.24279857 -0.31500757 -0.06089932
000150 79 99 54 3c 76 e7 18 be 5f b6 38 ba e5 d5 0e bd
       0.012976044 -0.14932045 -0.00070462184 -0.034871954
000160 3d 9b 80 3d 9d c0 0d 3e d3 a1 65 3d 5c 8e 8c bd
       0.06279609 0.13843007 0.05606253 -0.068630904
000170 56 d3 19 3c 82 fb 38 bd 6e fa 10 bf 55 0b a0 bc
       0.009388765 -0.04516173 -0.56632125 -0.019536654
000180 c1 b4 4a bc b0 1e 51 3d 5e 6d 96 3f 0c c7 6a be
       -0.012372197 0.051054657 1.1752126 -0.22927493
000190 32 5e 00 3c a9 4e 0e bf 40 50 c7 bc dc 5f 99 3e
       0.007834958 -0.55588776 -0.024330258 0.29955947
0001a0 72 5e 03 3c bb 83 4f 3e 0b bc b3 3c eb d9 9c 3e
       0.008018123 0.20265095 0.021940252 0.30635008
0001b0 4b 73 bd be e3 1e a3 3c d0 6c 70 bd 84 5d 75 bd
       -0.37002024 0.019912189 -0.05869752 -0.059903637
0001c0 3c 01 16 bd 31 49 66 3f f9 fa 73 3a 61 e8 a9 3c
       -0.03662227 0.8995543 0.0009307112 0.02074069
0001d0 e2 63 85 3b ad aa 44 bf b5 60 9d be 6b 5d 5d bc
       0.004070745 -0.7682293 -0.30737844 -0.013511042
0001e0 de 5d c8 bb 3f 83 88 3f d6 50 42 3e 6c b5 03 bd
       -0.0061147055 1.0665053 0.18976149 -0.03215544
0001f0 87 72 c2 bf 93 43 4b 3b 56 91 e2 bd 3c bf d3 3e
       -1.5191201 0.003101562 -0.11062877 0.41356838
000200 3f 52 19 3d 97 35 90 3d 9d 77 94 be 86 49 61 bd
       0.03743195 0.070414715 -0.28997508 -0.055001758
000210 25 72 6f 3d 04 f4 99 3f 11 fa 6d 3d 4e 12 7b 3f
       0.058458466 1.2027593 0.05809981 0.98074806
000220 7b 23 5c 3e 76 05 25 bb ed aa 6f 3f 71 d4 2b 40
       0.2149791 -0.0025180257 0.9362019 2.6848414
000230 19 ca f9 3e fb 86 69 3f fe 1a 36 bf 4d 06 10 3c
       0.48787 0.9122159 -0.71134937 0.008790565
000240 3c 2a cc bd b6 99 be 3d fb 8c eb be 48 d0 9b 3e
       -0.09968993 0.09306662 -0.46005997 0.30432343
000250 ba e5 56 3d ce 7f 21 3e be 07 3f 3e 5c e9 8e 3d
       0.052465178 0.1577141 0.18655297 0.069781035
000260 36 89 d0 3e 02 b0 93 bd 2c bf 83 bd 81 de d3 bf
       0.40729684 -0.07211305 -0.064329475 -1.6552278
000270 98 a7 91 bc 9c 86 24 3c 6c f9 a9 be 40 0f df bb
       -0.01778011 0.010041859 -0.33198106 -0.006807238
000280 22 9f 1d 3f 11 c9 b2 3e 1c 03 27 3e 98 81 00 be
       0.6157094 0.34919026 0.1630978 -0.12549436
000290 77 a2 f7 3f 00 c3 e1 3e a0 d4 78 ba 01 45 f7 3d
       1.9346455 0.44094086 -0.0009492133 0.12073708
0002a0 8d 8d 50 3e 94 40 a1 be d9 cb 8a 3e d3 6d 46 bf
       0.20366497 -0.31494582 0.27108648 -0.7751133
0002b0 eb e7 b4 bb 92 be 6f 3e 99 d0 cb bd 04 f2 9e 3d
       -0.005520811 0.2341254 -0.09951896 0.077610046
0002c0 82 47 82 3c 17 02 ae 3f b1 f8 20 3e 2c 53 82 bf
       0.015903238 1.3594388 0.15719868 -1.0181632
0002d0 25 5e a5 bf 2c 8c bc bf 67 fa 92 be 87 3a 07 bf
       -1.2919356 -1.4730277 -0.28706667 -0.5282368
0002e0 10 be 5c be 46 2f 12 be f4 5f 10 bf 56 d6 f8 3e
       -0.21556878 -0.14275846 -0.5639641 0.48601025
0002f0 a9 0f 5d bc c8 ff 55 bf 6b 16 c8 bc ed c0 fe 3e
       -0.013492503 -0.83593416 -0.024424752 0.49756566
000300 05 1d f8 3f 7e c0 82 be a0 30 a3 be f7 d2 9b 3c
       1.9383856 -0.25537485 -0.31873035 0.019021494
000310 86 29 27 3e 4f 57 8e 3d 3c 5a f3 be 6e 0d 3e bb
       0.16324434 0.069502465 -0.4752978 -0.0028999704
000320 6f 14 6c be 79 b7 c4 3e 3c 96 b2 be 06 6b 23 3d
       -0.2305467 0.3842123 -0.34880245 0.039896987
000330 f1 0b 7c 3d 51 0c b3 3f fa 85 88 3e 28 44 9a 3e
       0.061534826 1.3988134 0.26664716 0.30130124
000340 f7 6c 05 be a5 ad 27 bd ce 0b 27 be 7f 78 70 3e
       -0.13029848 -0.040937085 -0.16313097 0.23483466
000350 f4 6f 57 3d 2e 57 51 bf 58 b1 f8 3c 6e 81 2d 3d
       0.052597 -0.8177365 0.030358002 0.042359762
000360 4f 52 18 bd 56 f1 46 bf 16 2f 03 3e 05 8d 55 bf
       -0.03718787 -0.77712 0.1281093 -0.83418304
000370 b1 9c 49 3c 49 4e aa 3f d0 dd e4 3e 04 2f dd bb
       0.012305425 1.3305141 0.4470048 -0.0067499895
000380 0b 4f 59 bf 00 cf e3 3c 53 5d 9b bf ce be 5b 3f
       -0.84886235 0.027808666 -1.2137855 0.8583802
000390 a3 3a 31 bc 9f 85 97 3f d1 37 f1 3d 04 ca 06 bf
       -0.010817203 1.1837653 0.11778224 -0.52652
0003a0 bf 63 8b 3c da f5 4f 3f dd 5b 47 3d c5 f4 e3 be
       0.017015336 0.81234515 0.048671592 -0.44522682
0003b0 40 0d 2e 3f 7f f1 55 3f 84 7f 6d 3f c5 4a a7 bf
       0.6798897 0.8357162 0.927727 -1.3069693
0003c0 14 9e 7c 3d 66 ef a0 bf e0 b2 a6 3c 69 ba 1e be
       0.061674193 -1.2573059 0.020348966 -0.15500797
0003d0 d8 d7 50 3f 84 6e a4 3f 79 ae 34 3f 25 77 66 3d
       0.8157935 1.2846227 0.70578724 0.05626597
0003e0 32 62 b7 3c 2e 0a 89 3e 32 ac 1a be 67 7b be 3f
       0.02238569 0.2676558 -0.1510475 1.488141
0003f0 a0 67 dc 3f b7 10 20 3f d3 74 a5 3e a5 d7 4c bf
       1.7219124 0.62525505 0.32315692 -0.8001655

fc3.bias f4 [2]
000000 c0 08 6f 3f 96 04 11 c0
       0.93372726 -2.265905
