p3_collab-compet/saved/checkpoint_critic.pth (torch_old, 159721 bytes, 5 tensors)

fc1.weight f4 [256, 24]
00000000: b00a 003f 2c33 eebe 3fe3 cabc 980d b4bd
00000010: 9510 a53d b963 2dc0 7a8e 94bd b676 a6bc
00000020: 9393 743f ed95 873e 1e57 f4bc 5039 6f3e
00000030: b2e0 113e 2deb f6bf 8863 8f3d 65a9 773e
00000040: 21ba 2440 e031 963e f82d 8d3c 485f b53d
00000050: aa49 973d 802c 2dbf 30f4 9fbd 7e94 ed3d
00000060: bf9a 8f3e bfbb 093e c473 d9bc 6560 3e3d
00000070: 038a 18be b6bf 323e fa8c 943c 78b5 ce3c
00000080: f2d8 253d f834 b1be 4308 473c 6e9d bb3d
00000090: 8924 983f 9976 34c0 adc0 c3bc d468 b73d
000000a0: 016b 913b 0415 97be c071 02bd caba fbbc
000000b0: 9d94 9d3e 94f7 193f c031 2d3c 2395 38bb
000000c0: fd03 733e 9f57 24be 27bc e9bc f433 3c3d
000000d0: 51b5 2fbe 9ba7 97be 30ce ecbb 0d23 733d
000000e0: 8f98 8e3e e465 1bbd eb67 0abd 6cc0 85bd
000000f0: e11b 58bd f118 1ebe 8f48 9fbc d023 383c
00000100: 65ed bd3e 482c 01be 3321 4c3c 126b 1cbc
00000110: 2633 4f3e a2be 2abd cbac 3fbd 576c e8bb
00000120: 520c 4f3f dd76 933f b6d3 27bd 193a 4abe
00000130: e8dd 37bf 4e4f 17bf 10de f4bc 3d87 35be
00000140: 2ccb 923f e929 963f 325a fdbd 0e03 ff3d
00000150: 6acf dd3c c851 6fbf ceb5 74bd a6d9 3f3d
00000160: 51c3 bb3f 9e7e 673f 880b afbd bd8d 6d3e
00000170: 567c 153f 5506 a2be 2b43 90bd d42e 653e
00000180: 830c 843f 761d 873f 4873 52be c95f fd3d
00000190: 6686 2ebf baa7 27bf 274c 14be c1aa a03d
000001a0: 1b38 9f3f 8609 743f c134 abbd d70f d53c
000001b0: 30b7 493d d1a8 c4bf efe1 d7bd fcd4 fb3d
000001c0: 2f23 5d3f 3fa3 dcbc 2476 903b 49e7 0c3e
000001d0: 2e13 053f ed4b 9ebf 897a 3b3d 6a04 c33d
000001e0: 2a1e 0c3f 1d04 493f 31b5 40bd 0362 62be
000001f0: 91f5 c13c c157 93bf e5fd b3bd ff5e 86be
00000200: d368 293f 7619 323f 286d 4abd 3897 fd3b
00000210: ffc3 76bd f3b9 26bf b5de 97bd bcce 81bc
00000220: b505 3e3f a485 663f d813 0cbc 59ab 6b3e
00000230: 5a9e 4abe 9197 84bd d28a e73b 35e4 203e
00000240: 3ddc 913f e8b4 73be 8936 92bd a4bd f7be
00000250: 4cb3 243e 866a 54c0 8304 fcbc 5b58 dcbe
00000260: c257 ab3f a0cd 02bf 6d51 33bb bafa f83e
00000270: 004e 573d 22d1 23c0 fd97 acbd 6902 e13e
00000280: dbd0 7b3f df8b efbe d296 353d 892a b8bd
00000290: f01e d9be f470 12bf 1ddc 2a3d e422 47bd
000002a0: 3def 96bd 5752 fb3f 478c 84bc f8e1 313d
000002b0: d3d1 d63d e7be 8cbd eee1 903c bb49 873d
000002c0: dd5b 10be c811 0c40 9a00 b6bc 047c 9a3e
000002d0: 831d a5bd e815 8bbf 8f21 4a3d d237 be3e
000002e0: bc76 d4be 2834 0a40 2e2c d5bb d744 fcbd
000002f0: a607 87be 3263 81c0 9593 773c da89 22be
00000300: 955d 3e3f 327a 653f d2c6 84bd 1ca5 5abe
00000310: b0d6 023e 4664 86bf 3e0e 33bd 5d79 73be
00000320: 9aaa 583f 3be9 943f 020c efbc 39fd fe3d
00000330: f563 883d ab5b 83bf 8337 e7bd ca72 3b3d
00000340: 9039 633f 72ef 9c3f 0686 2dbc f95b db3d
00000350: 0860 91be 4c88 f8bd 6757 0ebc 9838 a93d
00000360: eb67 a83f b2c2 08bf 2c4f e2bb 5486 ecbb
00000370: b42e 8ebe c68a f6bf a21c 7a3d 4ce4 78bc
00000380: 1e26 c73f d3b5 0abf 888d 9d3d c5f3 223f
00000390: ef43 63be 2e9e e0bf ea88 0e3c 2b44 203f
000003a0: eb2e ca3f 4a20 64be f262 c33c f4e4 4e3e
000003b0: 3afe 99be f00a 3dbf 1139 d63d 69ff 293e
000003c0: 5d95 7b3f e991 a13e 81cf 64bd e685 5ebd
000003d0: 13c2 a03d d50b 52be 744c 8dbd ca6c a9bb
000003e0: 7107 7d3f 3218 873e d36b 1cbd d42e 74bd
000003f0: 09ad b73d d850 edbe b927 fbbd 4de2 3ebd
0.5001631 -0.46523416 -0.024766563 -0.08791655 0.080598034 -2.7092116 -0.07253738 -0.020320278
0.9553768 0.26481572 -0.029826697 0.23361707 0.1424587 -1.929052 0.07001406 0.24185713
2.5738604 0.29334927 0.017233834 0.08856064 0.07387097 -0.67646027 -0.07810247 0.11600588
0.2804775 0.13450526 -0.02654446 0.046478648 -0.14896397 0.17455944 0.01813363 0.025233015
0.0404901 -0.34610724 0.012147966 0.09160887 1.188615 -2.8197386 -0.023895586 0.08955541
0.0044378047 -0.2950822 -0.03184676 -0.030728716 0.30777445 0.601434 0.010570943 -0.0028165064
0.2373199 -0.1604905 -0.0285321 0.045947984 -0.1715901 -0.2962006 -0.007226728 0.0593596
0.27850768 -0.037938967 -0.03379051 -0.06530842 -0.052760962 -0.15439202 -0.019443778 0.011239007
0.3709518 -0.12614548 0.012459087 -0.009547012 0.20234355 -0.041685708 -0.046795648 -0.0070929932
0.80878174 1.1520649 -0.040973388 -0.19748725 -0.7182298 -0.59105384 -0.029891044 -0.1772737
1.1468253 1.173154 -0.12370719 0.124517545 0.027076442 -0.93484163 -0.059743695 0.046838425
1.4668981 0.9042758 -0.08547121 0.231986 0.58392847 -0.31645456 -0.07044061 0.22381145
1.0316318 1.0555866 -0.20551789 0.12371785 -0.68173826 -0.65490305 -0.14482175 0.07845069
1.2438997 0.9532703 -0.083596714 0.02600853 0.049246967 -1.5364019 -0.1054114 0.12296483
0.8638181 -0.02693331 0.0044086147 0.13760103 0.5198239 -1.2366921 0.045771156 0.09522326
0.54733527 0.785219 -0.047047798 -0.22107701 0.023676665 -1.1511155 -0.08788661 -0.2624435
0.66175574 0.695701 -0.049420506 0.007738974 -0.06024551 -0.65127486 -0.07415525 -0.015845649
0.7422746 0.9004767 -0.008549653 0.23014583 -0.19786969 -0.064742215 0.007066109 0.15712054
1.1395336 -0.23799479 -0.07139308 -0.48386872 0.16084021 -3.3190017 -0.03076387 -0.4303616
1.3386157 -0.5109501 -0.0027361766 0.4862879 0.05256462 -2.5596395 -0.08427427 0.4394715
0.98365563 -0.467864 0.044333287 -0.08992488 -0.42406416 -0.572036 0.041713823 -0.04861726
-0.0736985 1.9634503 -0.01618017 0.04342839 0.104892395 -0.06872349 0.017685857 0.0660586
-0.14097543 2.1885853 -0.022217084 0.3017274 -0.080622695 -1.086606 0.04934841 0.37151963
-0.41496837 2.1594334 -0.006505511 -0.12317818 -0.26373023 -4.043359 0.01511087 -0.15872899
0.74361545 0.8963958 -0.064832345 -0.21352047 0.1277721 -1.0499351 -0.043714754 -0.23776765
0.8463532 1.1633676 -0.02918053 0.12450642 0.0665969 -1.026235 -0.11289885 0.04576377
0.8875971 1.2260573 -0.010591036 0.10710902 -0.2839358 -0.121353716 -0.0086878305 0.082627475
1.3156713 -0.5342208 -0.0069064107 -0.0072181616 -0.27770007 -1.92611 0.061062463 -0.015191149
1.5558507 -0.5418369 0.076930106 0.6365321 -0.22193883 -1.7548273 0.008699635 0.62604016
1.5795568 -0.22277942 0.023850892 0.20204526 -0.30076772 -0.73844814 0.10460103 0.16601337
0.98274785 0.31556633 -0.055861954 -0.054326914 0.07849517 -0.20512326 -0.06899348 -0.0051704394
0.9883948 0.26385647 -0.038188767 -0.05961497 0.08968551 -0.4635074 -0.12263436 -0.046602536

fc1.bias f4 [256]
00000000: d225 08c0 3438 e7bf b59c 54be 8009 2ebe
00000010: 10ae c43e 7fe8 d8bf 71d8 17c0 961e 20bf
00000020: f62b e8bf c46c d8bf 2bd2 2ebf 9669 f3bf
00000030: c74d fe3f 93fb 2ec0 8aa7 fbbd 7210 08bf
00000040: 9e7d f2be 6b55 97bf 5c6e f73d 060b 18bf
00000050: a4f2 f6bf 4425 f3be 0cbe e5be 939e 0bc0
00000060: 539a e0bf 66fd 87bf 1671 42c0 a790 edbf
00000070: 7ddf 51c0 f05c a3bf 42ba ddbe 1f70 f5bf
00000080: cb9a 10bf a4c7 25bf 2671 85bf ba25 18bf
00000090: 98ef 09bf 7c22 dcbd 6e08 f3bf 6237 e3bf
000000a0: 59e1 44bf 06fb bbbf 3924 17bf 916b 0ec0
000000b0: 165e d33d 7060 bdbe 8a9e ad3e 3e61 febe
000000c0: a401 6d3b dbc5 31c0 e3d6 e1be b556 69bf
000000d0: 176c 8abd 1f5c 2dbf 07a5 14be 31f5 133d
000000e0: 38db 61be 2350 20bf df15 30c0 f5ed b2bf
000000f0: 63af c2bf 2a02 25bf 4385 85c0 226d a5be
00000100: adb0 2bbf 93e9 ebbf 05dc 02bf 7b9b 9cbf
00000110: 4539 e9be c64e 6240 4fe6 85be daf5 0dc0
00000120: bb17 36bf 5ef8 36bd 782f 3bc0 bed3 4a40
00000130: 41bd 96bd 35e6 0ebe 4b5d b8bf a0b5 c53e
00000140: 201e acbe 8a95 99bf c1f5 f3bf 5cf1 64bf
00000150: c45a cdbf f0a2 d1be e3a3 33bf 34f0 11bf
00000160: 7279 62bf 8e4b 70be 01c7 c5be da23 15c0
00000170: 5e9b a8be a5f3 a2bd e8df 19c0 4701 0ac0
00000180: c8d5 0dc0 4b70 adbe d42d cebd c41a 28be
00000190: bbb6 23bf 9a33 2c40 f587 b2be 5763 8cbe
000001a0: aacf 39c0 4400 0dbe d089 42be 058c c9bf
000001b0: 2aaa 8abe 0472 20bf 175d 01be b20b f0be
000001c0: 8c27 e6bf f9c0 99bf 0813 edbe 722d d1bf
000001d0: 8f43 1fc0 2c9a 50c0 21d0 21bf 9972 06be
000001e0: 1a1f 4fbf dbe3 88be c153 45be 3ab6 67bf
000001f0: 0db2 bbbf ae33 06bf 3b3c e8bb 8470 00bf
00000200: d929 f0bd 5187 20c0 df62 c9bf 6db2 1bbe
00000210: f9f0 85c0 27ce f1be 71bc 9bbe 7239 3bbf
00000220: 35b5 dabe 06a2 85bf e548 62bf 0a44 9bbf
00000230: dc18 98be dc04 ccbe 3ce5 4fbe 0b55 f4be
00000240: fef4 b8be 5f7c 3fbf 68da d9be 98c8 93be
00000250: cef2 80bf 3795 9fbf 232c 54be c678 4bbf
00000260: af64 eb3c baed 6abf 563d 3cbe a51d 6cc0
00000270: 95d8 c9bd 3ddf d3bf b132 ab3f 60c1 a3be
00000280: d3d8 fcbe ba4f babe 89ab 18bf 9ed4 c8bf
00000290: 9647 1fbf bb1c abbd d57c 88bf 137e 49be
000002a0: 9410 25bc 65bd 18bf ee82 a8c0 9cb3 94bf
000002b0: fff8 d2be 14a4 d6be 2804 15bf 5370 08c0
000002c0: c93a 84be 00a8 56c0 1dea b4be 9e61 e3be
000002d0: 6f25 f1be 2c4b b8be db29 43bf f920 0dc0
000002e0: 6979 68be ddcc 27bf a64b 03bf 9b1f 8a3e
000002f0: b8fa 1dbf efc6 1ebe 5e66 97bd f41d 72bf
00000300: 3351 74be 4c5d 0fbf b44f 633f 38b9 18c0
00000310: 8970 4b3e 14b5 4bbe 2bff f0be 0b72 c7bf
00000320: 1995 14c0 64e8 75be cfc4 4abf 6148 89bf
00000330: 88a7 25c0 f645 4fbf f72d 95bf 9f17 9ebf
00000340: a180 79c0 8e93 03c0 0b2c a5bf cb2e ccbf
00000350: 96b3 c6bf 4472 26c0 efa0 1bbf b8f4 ddbf
00000360: f6fe f0bf f065 493d 6d13 9abf fcf6 94be
00000370: f96c afbf fd0f 0ec0 a030 29bf 7e00 66bf
00000380: 6f1e 72bf 7da2 ccbf 59e3 58bf 0753 adbf
00000390: cb0e 0e40 ef4a 8dbf ee39 b6bf 633f aebd
000003a0: 9c49 babf c0d5 12c0 ba69 00bf b18d 91c0
000003b0: 0dcc 5bbf 7807 e23e cfee 88bd fb9c bfbf
000003c0: c450 dcbe 5b40 ed3f 133a eebf 01ef f2be
000003d0: 83b7 68bf ae84 a4be dfdd c7bf f25b 8fbe
000003e0: d81e cdbe 559a 59be 04f9 47bf 5995 00c0
000003f0: f1f4 0ebf bf3b 3f40 e66c eabf d31c 58bf
-2.1273084 -1.8064027 -0.20762904 -0.16995811 0.3841405 -1.6945952 -2.3725855 -0.6254667
-1.8138416 -1.6908193 -0.6828944 -1.9016597 1.9867486 -2.7341049 -0.12287815 -0.53150094
-0.47361463 -1.1822942 0.12081596 -0.5939182 -1.9292798 -0.4748937 -0.44871557 -2.1815536
-1.7547096 -1.0624206 -3.0381522 -1.8559769 -3.2792656 -1.2762737 -0.43306166 -1.9174842
-0.56486195 -0.6475775 -1.0425155 -0.59432566 -0.53881216 -0.10748765 -1.8986948 -1.7751276
-0.76906353 -1.4685981 -0.59039646 -2.2253153 0.1032068 -0.36987638 0.33910018 -0.49683565
0.0036164308 -2.7777011 -0.44109258 -0.9114793 -0.06758898 -0.6771869 -0.14516078 0.036122505
-0.22056282 -0.6262228 -2.751335 -1.3978869 -1.5209774 -0.6445643 -4.1725173 -0.32309824
-0.6706646 -1.8430656 -0.51116973 -1.2234949 -0.45551506 3.536058 -0.26152274 -2.2181306
-0.7112996 -0.044670455 -2.9247723 3.1691737 -0.07360316 -0.13955005 -1.4403471 0.3861513
-0.33616734 -1.1998761 -1.9059373 -0.89430785 -1.6043324 -0.40944624 -0.70171946 -0.57007146
-0.8846656 -0.23466322 -0.3862839 -2.3303132 -0.32931036 -0.07956628 -2.4042912 -2.156328
-2.2161732 -0.33874735 -0.10067335 -0.1641646 -0.639507 2.6906495 -0.34869352 -0.2741954
-2.9032998 -0.13769633 -0.18997884 -1.5745856 -0.2708295 -0.62673974 -0.12633167 -0.46883923
-1.7980819 -1.2012016 -0.46303582 -1.6341994 -2.4884984 -3.25941 -0.63208205 -0.13129653
-0.8090683 -0.2673634 -0.19270231 -0.9051243 -1.4663712 -0.52422607 -0.007087258 -0.50171685
-0.11726732 -2.508259 -1.5733298 -0.15204783 -4.1856656 -0.47227594 -0.30417207 -0.7313453
-0.42716375 -1.0440071 -0.8839248 -1.2130139 -0.29706466 -0.39847457 -0.2030229 -0.47721133
-0.36124414 -0.7479915 -0.42549443 -0.28863978 -1.0074098 -1.2467412 -0.20719962 -0.7948116
0.028734533 -0.9176899 -0.18382773 -3.6893094 -0.09855763 -1.6552502 1.3374845 -0.3198347
-0.49384174 -0.36388952 -0.5963674 -1.5689886 -0.62218606 -0.08355089 -1.0663096 -0.19677
-0.010074753 -0.59663993 -5.2659826 -1.1617312 -0.41205594 -0.41922057 -0.58209467 -2.1318557
-0.258261 -3.354004 -0.35334864 -0.44410414 -0.47098872 -0.35994852 -0.7623574 -2.2051375
-0.22702564 -0.6554697 -0.51287305 0.26977238 -0.6171069 -0.15505575 -0.07392572 -0.94576955
-0.238591 -0.56001735 0.8879349 -2.3863049 0.19867148 -0.19893295 -0.47069678 -1.5581678
-2.3216002 -0.24014431 -0.79206556 -1.0725213 -2.5883503 -0.80966127 -1.1654652 -1.2350959
-3.898476 -2.055881 -1.2904066 -1.595178 -1.5523555 -2.6007242 -0.6079244 -1.7340307
-1.8827808 0.04916948 -1.2037178 -0.29094684 -1.3705131 -2.2197258 -0.6608982 -0.898445
-0.9457769 -1.5987087 -0.84721905 -1.3540963 2.219653 -1.1038493 -1.4236429 -0.08508184
-1.4553714 -2.2942963 -0.50161326 -4.5485463 -0.8585823 0.44146323 -0.06686174 -1.4969782
-0.4303037 1.8535265 -1.8611473 -0.4744797 -0.90905017 -0.32132477 -1.5614585 -0.27999836
-0.40062594 -0.21250279 -0.7811434 -2.0091155 -0.558425 2.9880216 -1.8314483 -0.8441898

fc2.weight f4 [128, 258]
00000000: 65de 75bd 1f2a 92bc 50e5 9c3d 87ef d7bc
00000010: d4c9 9c3c 81dd 23bd 7895 f73d 5bde 333d
00000020: 90e4 2abe 3685 c1bc 9538 c1bc 5f05 bbbd
00000030: 133a 40bd 65d3 95bd ab7e de3b 8df5 663d
00000040: b892 afbd ebe4 75bb 7f73 793d d258 7ebd
00000050: 628f 96bc a0a5 d7bd e7e7 c13b 6f5f 32bb
00000060: e54a 29be caef 09be bb4a 08be bdb5 053d
00000070: cc44 82bc 7fa3 92bc 8d1c 9f3c 48f6 5dbd
00000080: 0956 b33b e3a6 7e3d 816b 90bd 71e9 323d
00000090: 7f53 42bd b399 973d fcf6 b7bd 1e36 c8bd
000000a0: ecae c6bc d2a4 d2bc e625 203d d534 d8bd
000000b0: 3697 f0bd 0ec5 c2bd 77b8 48bd d9b7 27bd
000000c0: fcb9 87bd 4a23 36bd 1588 56bd fac3 00bc
000000d0: 0ee4 653b 1730 443c f4c8 bdbd 5b4e 063d
000000e0: e7cf 45bd f62a fd3c ebc1 4abd eba1 963c
000000f0: 9a08 55bd 17d3 fd3c 0900 de3c 0e29 aebd
00000100: ed63 8abd 75bd dbbd ab9e 87bd ce49 a9bd
00000110: 2ae3 58bc 3581 0cbe bcf0 e2bc 4414 c3ba
00000120: baba 63bd c11d d7bc 29a8 cdbd 4ffb d0bd
00000130: 19af b63b 2567 013d 7381 9d3b dc31 1fbe
00000140: eecc 8e3d 7960 38bd 25c5 723d d3fd c9bd
00000150: b385 d5bb f742 333d ea90 813d 0d5f 66bc
00000160: 80c3 87bd 4dc5 2f3c 4194 3f3d e2db d6bd
00000170: 7ab3 c8bd 15de 0abd 2792 9f3c 63f8 3fbc
00000180: b037 7d3d eaa8 50bc 4c15 7dbd e6a5 acbd
00000190: b9eb 4d3d 3e72 05be 00d7 bcbd ce10 9bbc
000001a0: 8b6b 8cbd a45f 7bbd 8147 07bd a34f d8bd
000001b0: 0214 a4bc 174f 803c 5eba 133c 1719 903c
000001c0: f9ea c3bd fdff ebbc 7aba b7bd 2b9c 443d
000001d0: 5c88 f1bd 095a 0dbe f4c9 373d f6f8 593d
000001e0: a9c4 99bd ec0e fc3c 3938 96bd 1253 3bbd
000001f0: e024 19be 9cea 3fbd e4ea 4abd 15c6 91bd
00000200: 298a d7bd caaf 82bd ee1e 8abd 00f3 08bd
00000210: 0d5b c03c 185b 2bbd 6082 c53c ada3 5bbd
00000220: f962 5e3d 2e9b dabc edf2 6ebb 9be2 b73a
00000230: f0ef 0ebd 1ea4 52bd e273 5a3d 9f1e 8b3c
00000240: a682 06bd 5c61 c7bd d592 64bd 85e3 dfbc
00000250: 7aae 663d 00a5 133d 272a edbd 4b82 93bc
00000260: a15e 843d 6ce5 0b3d 5738 90bd 727d 28be
00000270: f1a9 a43c 6d2b 403d 087f f7bc 4790 b23d
00000280: 08bb c6bc 2dc3 d939 0b2e 503c 7dc3 bebd
00000290: d142 97bd ae52 f5bc 1c86 94bd 585e e0bc
000002a0: 725f b1bc 52a2 c5bc 8914 c9bd b0d0 8e3c
000002b0: 235f 873d 6b5a 50bd 47be 93bd a141 9e3c
000002c0: 09eb 423d 0bc4 50bd 75ab 40bd 0755 1abd
000002d0: f4c2 febc 748c 0fbd 259b e6bd c04b ecbd
000002e0: d203 96bd 5756 bcbb dd76 5a3d b7a6 683d
000002f0: ed4e cdbd 3e8d 86bb c680 30bc 593b 46bc
00000300: 7c21 92bc 9782 fb39 f1d8 93bd a933 ea3c
00000310: f283 5dbb b799 bc3b 4012 413d 4bc4 c1bd
00000320: e51d 543d ac8d 17bc d633 d93c f9a0 20bd
00000330: b7fd 60bd 1a4b d2bd f286 103c 4478 56bd
00000340: 3d3b 94bd ae0c a6bc 37ee 56bd 3ce4 88bd
00000350: cac7 c23c 36db 25bd 4bb8 94bc ada0 153c
00000360: ef6d 13bc 48f1 35be 829d 543d 529a 643d
00000370: 59d1 58bd f2d6 52bd fc80 b83c 57c1 0bbc
00000380: 3375 5bbd b19d 2dbe 3a4d 68bd c06c 43bc
00000390: 59a1 babd b462 03be 340a aabd 8ecb 24bd
000003a0: ff61 d03c cae6 28bd 3ead 053d f925 9e3d
000003b0: 5e8b 32bd df91 eabc 0611 a83c d4fb 223d
000003c0: eec0 60bc c4c5 1dbd 25fc 2ebc 0b3b ffbc
000003d0: 2368 753d 74b0 cfbd 3d1c 77bd c801 bcba
000003e0: adc5 b3bc 7da7 76bd e68f 2cbb b05f b1bd
000003f0: ce8f b7bd 7e03 70bb 8a3c 6a3d 5019 503d
-0.060026545 -0.01784235 0.076609254 -0.026359333 0.019139208 -0.040006164 0.12089056 0.043913227
-0.16688752 -0.02362309 -0.02358655 -0.09131884 -0.046930384 -0.07315711 0.0067900023 0.05638652
-0.08572906 -0.003752048 0.06090116 -0.062096424 -0.018378917 -0.10529637 0.0059175375 -0.0027217527
-0.16532476 -0.13470379 -0.13309757 0.032644022 -0.015901946 -0.017900227 0.019422794 -0.05418995
0.0054729027 0.062170874 -0.07051755 0.04367966 -0.04744291 0.07402363 -0.089826554 -0.09775947
-0.024253331 -0.025713358 0.039098643 -0.10556952 -0.11747591 -0.095102414 -0.049004044 -0.040946815
-0.066272706 -0.044467248 -0.05237587 -0.007859224 0.0035078558 0.011974356 -0.092668444 0.03278957
-0.048293974 0.030904274 -0.04950134 0.018387755 -0.052010156 0.030984445 0.027099626 -0.08503924
-0.067573406 -0.107294954 -0.066220604 -0.0826603 -0.013237754 -0.13721164 -0.027702682 -0.0014883359
-0.055598 -0.026259305 -0.1004184 -0.10204183 0.0055750725 0.031592507 0.0048066913 -0.15546364
0.06972681 -0.04501388 0.059270043 -0.09862866 -0.0065161823 0.043765035 0.06326468 -0.014060748
-0.066290855 0.0107281925 0.046772245 -0.10491158 -0.097998574 -0.0339032 0.01947887 -0.011716935
0.061820686 -0.012735585 -0.06178789 -0.0843008 0.05027363 -0.13031861 -0.092206955 -0.018928912
-0.0685645 -0.061370507 -0.033027176 -0.105620645 -0.020029072 0.015662713 0.009016601 0.017590089
-0.09566302 -0.028808588 -0.089711145 0.048000496 -0.117935866 -0.13803877 0.044870332 0.053215943
-0.07508213 0.030768834 -0.07334942 -0.04573352 -0.14955473 -0.0468546 -0.049540415 -0.07117859
-0.10524399 -0.06381185 -0.067441806 -0.033434868 0.023480916 -0.04183492 0.02411002 -0.05362289
0.054293606 -0.026685324 -0.0036460713 0.0014029326 -0.03489679 -0.051426046 0.05333317 0.016982375
-0.03283944 -0.09735367 -0.055804092 -0.02733017 0.056318738 0.036046028 -0.115803055 -0.018006464
0.064633615 0.03415434 -0.07041996 -0.16454104 0.020100566 0.046916414 -0.03021194 0.08718925
-0.024259105 0.00041534883 0.01270629 -0.0931463 -0.07385791 -0.029946651 -0.07252142 -0.027388737
-0.021651957 -0.024125252 -0.0981837 0.017433494 0.06609943 -0.05086748 -0.07214027 0.019318404
0.04758743 -0.05096821 -0.047038514 -0.037678745 -0.03109882 -0.035046056 -0.1126006 -0.11537886
-0.073249474 -0.005747597 0.053336013 0.056799617 -0.100248195 -0.004106193 -0.0107728895 -0.0120991105
-0.017838232 0.00047971748 -0.07219113 0.028589087 -0.003380057 0.005755629 0.047136545 -0.09461268
0.051786322 -0.009250086 0.026513975 -0.039216015 -0.05492946 -0.10268231 0.008821236 -0.052360788
-0.07237861 -0.020269718 -0.052473273 -0.06684157 0.023776907 -0.04049226 -0.018154284 0.009132546
-0.008998378 -0.17767823 0.051908024 0.055811234 -0.052934024 -0.05147452 0.022522442 -0.0085299825
-0.053578567 -0.16954686 -0.056714274 -0.0119277835 -0.09112806 -0.12830621 -0.08302727 -0.040233187
0.025437353 -0.041235723 0.03263592 0.077220865 -0.043589942 -0.02863401 0.02051593 0.039790943
-0.013717873 -0.038518682 -0.010680233 -0.031156084 0.059913766 -0.10141078 -0.060329664 -0.0014343793
-0.021944845 -0.060218323 -0.0026330887 -0.08660829 -0.089629754 -0.0036623175 0.05718664 0.05080539

fc2.bias f4 [128]
00000000: 3c3c 20bc c195 d0be 185e 04be 89b9 d33f
00000010: c0f3 e0bd 3a92 d2bd 11c2 18bd 30c1 08be
00000020: d96f 95bd 5ce1 6dbe 9039 f8bc f9b9 d7bf
00000030: 39e2 8cbd 673f 19be 5922 34be 62d3 fabd
00000040: 3177 d8bd 1e6a 71bd 9639 9bbd f1b3 d1bd
00000050: 9b6d 0ebe 73c9 93bd 3130 7b3f fefb e0bd
00000060: 87bd e9bd 67aa d3bf 676a 80bd 770e bfbd
00000070: 5a98 a1bd 5df5 25bd 0681 9bbd 47c0 60bd
00000080: beef 0fbf e606 cebd edee 9f3e bafc 3abd
00000090: da11 e23f ff70 e2bd 088d b3bc 7441 9fbd
000000a0: 9cb8 51be dcce 1dbe 80c4 34be 71cd 81bd
000000b0: cf5e 8dbd f6c2 00be 062a 1fbe b270 04be
000000c0: 5678 bbbd 2f65 f1bd be3c 1dbe 3739 d4bd
000000d0: 5b3a 84bd d4a1 fcbd 6b9d bebc ec10 a2be
000000e0: a81e a7bd 9362 13be c7cd 8dbd e0de 01be
000000f0: bc5c 0abe e1f9 b1be 8b82 d93f 0c2d c5bc
00000100: 2bdf 0abe 6eea 26be ce43 b5bd d79e 3b3f
00000110: 506c 08be 0874 bf3f 332f f8bd 1777 3dbe
00000120: d5bd 04be 0332 f2bd 0399 0cbf 5827 03be
00000130: 7096 d03e 8d3f c4bc 61a4 3bbe ae73 40bd
00000140: 2870 e8bd 3004 dcbd 81a1 963e 9d12 0abe
00000150: df14 fbbd 2e6a cfbd 2767 1ebe 1637 ccbd
00000160: 217a 8cbd b900 8fbd 253c 0cbe fff0 aebd
00000170: 4250 30be 3980 81bd 7bce 8cbd 121c 1fbe
00000180: a7f2 073e 3644 0ebe 02ed e7bd 91e3 81bf
00000190: 2432 ebbd 2406 8940 1da8 6cbf d6b0 1ebd
000001a0: eec5 c7bd 4321 41be f532 4c40 bea9 d5bc
000001b0: 8053 b0bd 6ee4 a6bd 3b2b 52bd 7946 adbd
000001c0: 8638 f7bd fdc1 a9bd 00fe 2ebd a89b a8bd
000001d0: f217 2140 35d0 55be 32a1 7abd 2005 cabd
000001e0: 0c7c c1bc 63ee 51bd 272e 05be 4e95 963f
000001f0: 14ad 8abe 7150 34bd 662c bcbd 964a f0bd
-0.009779986 -0.40739253 -0.12926519 1.6540996 -0.109839916 -0.10281797 -0.03729445 -0.13354945
-0.07296724 -0.23230499 -0.030300885 -1.6853629 -0.06879086 -0.14965592 -0.17591228 -0.12247349
-0.10569609 -0.05893909 -0.07579343 -0.10239399 -0.13908999 -0.07216158 0.9812041 -0.10985564
-0.114131026 -1.6536378 -0.06270295 -0.09328931 -0.07890387 -0.0405172 -0.07592969 -0.05487087
-0.5622519 -0.100599095 0.31236973 -0.045651175 1.7661698 -0.110567085 -0.021917835 -0.07776156
-0.20480579 -0.15410942 -0.17653084 -0.06338013 -0.06902849 -0.12574372 -0.15543374 -0.12933615
-0.09153812 -0.11786877 -0.15355203 -0.10362475 -0.06456443 -0.12335554 -0.023268422 -0.31653535
-0.08160144 -0.14393072 -0.069240145 -0.12682676 -0.13511938 -0.34760955 1.6992964 -0.024069332
-0.13561694 -0.16300365 -0.08850823 0.73289245 -0.13322568 1.4957285 -0.121183775 -0.1850246
-0.1296304 -0.11825945 -0.5492098 -0.12807977 0.40739775 -0.023956085 -0.18324424 -0.04698532
-0.11349517 -0.10742986 0.29420093 -0.13483663 -0.1225984 -0.10127674 -0.15469037 -0.09971444
-0.06859232 -0.0698256 -0.13694818 -0.0854206 -0.17218116 -0.06323285 -0.068753205 -0.15538052
0.13276158 -0.13893208 -0.113245025 -1.0147573 -0.11484173 4.2819996 -0.9244402 -0.038742863
-0.09754549 -0.18860345 3.1906102 -0.026081916 -0.08609676 -0.08149038 -0.05131076 -0.08460707
-0.12071328 -0.082889535 -0.042722702 -0.08232814 2.5170865 -0.20880206 -0.061188884 -0.09864259
-0.02361872 -0.051252734 -0.13005887 1.1764314 -0.27085173 -0.044022027 -0.09188156 -0.11732976

fc3.weight f4 [1, 128]
00000000: 9bc0 30bb b134 193a 64f7 843c 0282 f5bc
00000010: 51d8 f53c ce2f 003c 3633 fa3c 520e 363c
00000020: 593d b0bc 1833 7439 9903 8d3c 2567 c5bc
00000030: 8929 10bc 80bc d2bc e067 893a 565e 18bc
00000040: 4d60 a8bb a6f6 fdbc a876 713b 1256 66bc
00000050: 15a3 283d 9ace 08bc 67c1 6b3c 612a 173c
00000060: 0ea0 843c 5caa e1bc 7579 f53a 2bc7 8c3c
00000070: b4c6 bb3b dabb 96bc b56f d0bc 4fdd 8a3a
00000080: e8a1 5139 863d c3bc 56a8 c5bc 76ed 233c
00000090: 7c0f 81bc 2965 813c 632c 0ebc b611 df3c
000000a0: 0db8 a53c ec14 8bbc 3348 083c 6874 49bd
000000b0: eb54 fb3b d904 ea3c 0d20 8fbc 0d33 53ba
000000c0: 087c a53b f80c 973c ca12 b83b 0787 afbc
000000d0: 8860 ec3b 39c0 683c c234 3cbc a94e 853b
000000e0: 8f16 bdba 9704 a33c 908b a93c c22d 8a3b
000000f0: c642 3dbb b4ec ee3c 4602 86bc a710 14bc
00000100: d79b 4bbd 7610 f7bc 2664 473c 3dc4 a53c
00000110: 8209 d6bc 9ff3 55bc 5d3c b3bc 52ce ed3b
00000120: 8bb5 f13c 97f8 0f3c 7218 053c 0807 f4bc
00000130: f8e9 4bbc 5d83 a03c c2ab e4bc 33b8 ac3c
00000140: 10da d83b 06be 54bb 5dd9 e73c 5e1d 93bc
00000150: 1c58 f8bb 2722 e03b 0446 fabc f7dd 72bc
00000160: 147c ed3a 3a29 aabc a86f f83c 399d bfbc
00000170: 5862 bbbb e8fb 5b3c 240e bebc c70a 46bc
00000180: dec9 143d 728d ccbc 0e25 cabb 4ae1 bebc
00000190: 7d1a 943c ec64 8bbc ad3e c5bc 967a c4bc
000001a0: 6f3c 893b f0a6 80bc ca9c f0bc 665c cabc
000001b0: 1417 323c 60fa 94bc 77b5 e7bc d3dd 993b
000001c0: eeda 76bc 454c 753b 78a0 5bba 8a1e 0f3c
000001d0: ff2a 92bc 3375 6e3b 1de7 b83b 8be6 163c
000001e0: 10d7 0cbc 91b5 503c 0654 74bc 77a2 4abc
000001f0: 4cfa 16bc 2ed2 3bbc 6edc 3e3b 575c c83b
-0.002697027 0.00058443384 0.016231246 -0.02996922 0.030010374 0.0078238975 0.030541997 0.011111813
-0.021513628 0.00023288687 0.01721363 -0.024097035 -0.008798965 -0.02572465 0.0010483228 -0.009299835
-0.005138433 -0.0310014 0.0036844406 -0.014058607 0.041171152 -0.008350039 0.014389372 0.0092264125
0.016189601 -0.027547054 0.0018728214 0.017184814 0.0057304744 -0.018400121 -0.025443891 0.001059452
0.00019992108 -0.023833048 -0.02412812 0.010005346 -0.015754454 0.015795307 -0.008677575 0.027230125
0.020229364 -0.01697775 0.008317995 -0.04918328 0.007670035 0.028566765 -0.017471338 -0.00080566184
0.005050186 0.018438801 0.005617474 -0.02142669 0.007213656 0.014205986 -0.011487188 0.004068215
-0.0014426279 0.01989965 0.020696431 0.0042168805 -0.0028878911 0.029165603 -0.016358506 -0.009037173
-0.049709167 -0.030159216 0.012169873 0.020235175 -0.02612758 -0.013058572 -0.02187937 0.0072572613
0.029505512 0.008787296 0.008123504 -0.029788509 -0.012445919 0.019593889 -0.027913932 0.021083927
0.006617792 -0.0032461896 0.02830189 -0.01795834 -0.007578863 0.006840009 -0.030550964 -0.014823428
0.0018118643 -0.020771611 0.03032668 -0.0233904 -0.0057185106 0.013426758 -0.023200102 -0.01208753
0.036325328 -0.02496979 -0.006168968 -0.023300786 0.018079037 -0.017015897 -0.024077738 -0.023984235
0.0041881124 -0.015704602 -0.029371638 -0.024702262 0.01086976 -0.018185794 -0.028284771 0.004695633
-0.015066845 0.0037429493 -0.0008378099 0.008735308 -0.017842768 0.0036385774 0.005642785 0.009210239
-0.008596197 0.012738601 -0.014912611 -0.012367836 -0.009214949 -0.011463685 0.0029123086 0.0061145234
