p1_navigation/saved/checkpoint.pth (torch_old, 19590 bytes, 6 tensors)

fc1.weight f4 [64, 37]
0	0xbdea825a	-0.11450644
1	0x3e95aa38	0.2923143
2	0xbe8b1617	-0.2716529
3	0xbe00112d	-0.12506552
4	0xbda728de	-0.08162092
5	0x3d12a8ef	0.03580564
6	0x3e08f567	0.13374864
7	0xbd31e2b6	-0.0434291
8	0x3df77a25	0.12083844
9	0x3dd9e9f6	0.10640328
10	0x3e492f62	0.19646981
11	0xbee7fd29	-0.45310333
12	0xbd9c1175	-0.07620517
13	0xbea0a4cd	-0.31375733
14	0xbf2a9b20	-0.6664295
15	0x3dc71226	0.097202584
16	0x3be4bafd	0.0069802986
17	0x3d95a0e7	0.0730608
18	0x3d13eb31	0.036112968
19	0xbdcb806b	-0.09936603
20	0x3d8603aa	0.065436676
21	0xbe3166f1	-0.17324425
22	0xbdfe9d90	-0.124323964
23	0x3ed5d3a1	0.41763023
24	0x3e281f64	0.16418225
25	0x3d8f629c	0.0700123
26	0xbd93cd05	-0.07216839
27	0xbda6f0b7	-0.081513815
28	0x3e699224	0.22809654
29	0xbdbd8ed4	-0.09255758
30	0xbbed61dc	-0.0072443318
31	0xbe356701	-0.17715074
32	0x3e6213a8	0.22077811
33	0xbd03d94d	-0.032189656
34	0x3d8e71d0	0.06955302
35	0x3c881e40	0.016615987
36	0xbcf8556e	-0.030314174
37	0x3e23a72b	0.15981738
38	0x3d3885ca	0.045049466
39	0xbd881a46	-0.06645636
40	0x3e7076d6	0.23482832
41	0xbde285b6	-0.110606596
42	0x3cfcdb41	0.030866267
43	0xbea3cc85	-0.31991974
44	0xbc4e1b4f	-0.012579753
45	0xbdb118f5	-0.08647338
46	0x3da0f840	0.0785985
47	0xbe0c36a1	-0.13692714
48	0xbd6ada9e	-0.057337396
49	0x3d931400	0.07181549
50	0x3e8dbbad	0.27682248
51	0x3bc4bad1	0.0060037156
52	0x3d809899	0.06279106
53	0x3d9433b4	0.07236424
54	0x3d2aa720	0.04166329
55	0xbd8af6c8	-0.06785351
56	0xbcddb06e	-0.027061667
57	0x3ceef56f	0.029169766
58	0xbeada3a4	-0.3391391
59	0x3bd846a1	0.0066002165
60	0x3d9f9864	0.07792738
61	0xbb8c0091	-0.0042725285
62	0xbc86412f	-0.016388504
63	0x3e222be7	0.1583706
64	0xbddeb505	-0.108743705
65	0x3ba0e110	0.004909642
66	0x3db46d1d	0.08809874
67	0x3e2d50d8	0.1692537
68	0x3dcf4a1c	0.10121557
69	0xbd8a367e	-0.06748675
70	0xbc49344d	-0.012280536
71	0xbe9665ef	-0.29374644
72	0x3e997b50	0.29976892
73	0x3c492d4e	0.012278868
74	0xbd4e2912	-0.050332136
75	0xbe972e32	-0.29527432
76	0xbedfd4cc	-0.4371704
77	0xbdbed6b5	-0.09318296
78	0xbea0ea2e	-0.31428665
79	0xbd215811	-0.039390627
80	0xbeb99422	-0.3624583
81	0x3d96c676	0.07362072
82	0xbec67510	-0.38761187
83	0xbea264ba	-0.31717473
84	0xbcb1df3b	-0.02171289
85	0xbea1c308	-0.3159411
86	0xbeba3d11	-0.36374715
87	0xbec9d871	-0.39422944
88	0xbf01fb0e	-0.50773704
89	0x3d95deef	0.07317912
90	0xbdc5f338	-0.09665531
91	0xbe5200f7	-0.2050818
92	0xbed0046e	-0.4062838
93	0x3c583739	0.01319676
94	0xbefdfb64	-0.49605858
95	0x3dc02066	0.093811795
96	0xbf35a80a	-0.7095953
97	0x3d7d7632	0.061880298
98	0xbe62b43f	-0.22139071
99	0xbe7aa603	-0.24477391
100	0xbe04acf6	-0.12956604
101	0x3dbfc7fa	0.093643144
102	0xbefe0cde	-0.49619192
103	0xbe136dd4	-0.14397365
104	0xbe313d0d	-0.17308445
105	0xbed23091	-0.41052678
106	0xbe545993	-0.20737295
107	0xbf0d71b0	-0.552516
108	0xbe991618	-0.2989967
109	0x3e08d0e3	0.13360934
110	0xbdd1fe8b	-0.10253628
111	0x3f0c0202	0.54690564
112	0xbf02e0fc	-0.5112455
113	0xbf0cdb20	-0.5502186
114	0xbed3e58b	-0.41386065
115	0xc01ddb96	-2.4665275
116	0x3d2a3002	0.04154969
117	0x3d14e7e0	0.036353946
118	0x3d9d3cf6	0.07677643
119	0x3de8aaaa	0.113606766
120	0xbd6779aa	-0.056512512
121	0x3dc1b702	0.09458734
122	0x3b93cb68	0.004510332
123	0xbb81dc0a	-0.0039629983
124	0x3d69a7e9	0.057044897
125	0xbd102edf	-0.03520095
126	0x3d63bd59	0.055600498
127	0xbcc67475	-0.024225453
128	0xbd85e109	-0.06537063
129	0x3bb09ce9	0.005389799
130	0xbc17456a	-0.009232858
131	0x3e072644	0.13198191
132	0x3da9bfbd	0.08288524
133	0x3d34bc26	0.044124745
134	0x3daae915	0.08345238
135	0xbc919b37	-0.017774208
136	0x3d6d8998	0.057992548
137	0x3e0479ca	0.12937084
138	0x3dcbd7a1	0.09953237
139	0x3dd7463a	0.105114415
140	0x3de10623	0.109874986
141	0x3d978b27	0.07399588
142	0x3e0b62e1	0.13611938
143	0x3d5e7b1a	0.054316618
144	0x3de5d9fa	0.11223216
145	0xbdb0307c	-0.08602998
146	0x39eb953c	0.0004493388
147	0xbb806e8f	-0.0039194296
148	0x3c9caa9c	0.019124322
149	0x3c88f714	0.016719379
150	0xbe4df926	-0.20114574
151	0xbe7fadd8	-0.2496866
152	0xbe86555b	-0.26236996
153	0x3e5fcae0	0.21854734
154	0x3cff7dca	0.03118791
155	0xbdc29333	-0.09500732
156	0xbaa16d05	-0.0012315816
157	0xbf2110b1	-0.62916094
158	0xbe4ec8ab	-0.20193736
159	0x3e25c41f	0.16188096
160	0x3d1c480e	0.038154654
161	0xbdaeb092	-0.08529772
162	0x3d8a8a7c	0.06764695
163	0xbdf86aed	-0.121297695
164	0x3cd72480	0.026262522
165	0xbda4fc79	-0.08055968
166	0x3d8426f5	0.06452743
167	0x3e420029	0.18945374
168	0xbde234a9	-0.110452004
169	0xbbd679e1	-0.006545291
170	0x3e3d414f	0.18481945
171	0x3db542e6	0.088506505
172	0x3f013efd	0.5048674
173	0x3d540696	0.051764093
174	0x3ca31316	0.019906562
175	0xbd1a941a	-0.037738897
176	0x3db9b3c5	0.090674914
177	0x3d9d043a	0.07666822
178	0xbc04cedc	-0.00810596
179	0xbe0db466	-0.13838348
180	0x3e55d8b1	0.20883442
181	0x3e246246	0.16053113
182	0x3ec44015	0.3833014
183	0xbd244560	-0.040105224
184	0xbd164f3d	-0.03669666
185	0xbea822ca	-0.32839042
186	0xbf056807	-0.5211186
187	0xbce24a76	-0.027623396
188	0x3c1e59a9	0.009664931
189	0xbda77247	-0.081760935
190	0xbe8c0aaf	-0.273519
191	0xbe261c60	-0.16221762
192	0x3dbf9bfc	0.093559235
193	0xbe2697ed	-0.16268893
194	0xbee95072	-0.45569187
195	0xbe03f5de	-0.1288676
196	0xbe4bea97	-0.19913708
197	0xbe2e0954	-0.16995746
198	0xbda9f5b4	-0.08298817
199	0xbe7d3adc	-0.24729484
200	0xbd2c32ad	-0.042040516
201	0x3d9681eb	0.07348999
202	0xbed231ea	-0.41053706
203	0xbf12a9dd	-0.5729044
204	0xbef8037b	-0.48440155
205	0xbde036ce	-0.10947953
206	0x3dcb6e6d	0.099331714
207	0xbe262960	-0.16226721
208	0x39ab6b90	0.00032695802
209	0xbe42d7f2	-0.19027689
210	0xbe564e72	-0.20928362
211	0xbd3545ff	-0.044256207
212	0xbde29006	-0.110626265
213	0xbea5d6c2	-0.3239041
214	0xbe5a679c	-0.21328586
215	0xbec0524a	-0.37562782
216	0xbef8bc61	-0.48581222
217	0x3dc60720	0.09669328
218	0xbd98d2f5	-0.07462112
219	0xbe4d6c80	-0.2006092
220	0xbdd7a8bc	-0.105302304
221	0x3e037a58	0.12839639
222	0x3e09e3b7	0.13465773
223	0x3ca98c64	0.020696826
224	0x3d28e9e3	0.041238677
225	0xbdfefdb9	-0.124507375
226	0xbe691fef	-0.22766088
227	0xbe5a445a	-0.21315137
228	0x3d6e21e9	0.058137808
229	0x3c3d657f	0.011559843
230	0x3e0a9224	0.1353231
231	0x3e8dc010	0.27685595
232	0x3e9de458	0.30838275
233	0xbda73d44	-0.08165982
234	0xbd5f1319	-0.054461572
235	0xbe8bf729	-0.27337006
236	0xbf9c7d55	-1.2225748
237	0xbe627cdc	-0.22117943
238	0x3c121ee9	0.008918502
239	0x3d8b9b0a	0.06816681
240	0x3e0b5a39	0.13608636
241	0x3e4f9c79	0.20274533
242	0x3d8460f6	0.06463806
243	0xbd96c6d1	-0.0736214
244	0x3e063e90	0.13109803
245	0xbc095001	-0.008380891
246	0x3ecb1869	0.3966706
247	0xbdead185	-0.11465744
248	0x3d62c4e9	0.05536357
249	0x3d23d227	0.03999534
250	0xbdf8cb5e	-0.12148164
251	0x3e8cc2d3	0.2749239
252	0x3e0daaf2	0.13834742
253	0xbdb6d2c0	-0.08926916
254	0xbdc190e4	-0.09451464
255	0x3dc6a223	0.09698894

fc1.bias f4 [64]
0	0x3dde3660	0.10850215
1	0xbd88f594	-0.06687465
2	0xbea6c6ed	-0.32573643
3	0x3c087e5e	0.00833091
4	0x3e0a2a34	0.13492662
5	0xbe86478a	-0.26226455
6	0xbd9e5e8c	-0.07732877
7	0xbd01443e	-0.03155922
8	0x3de63be1	0.1124189
9	0xbe37c73a	-0.17947093
10	0xbd1e37db	-0.038627487
11	0x3df754bf	0.12076711
12	0x3e2a309b	0.16620104
13	0x3ea0bfe2	0.31396395
14	0xbb8a22c0	-0.0042155683
15	0xbe756db1	-0.23967625
16	0x3cf14b6b	0.029454907
17	0xbe07b9db	-0.13254492
18	0x3dbacc9d	0.09121058
19	0xbe26d96f	-0.16293882
20	0xbe1d89cd	-0.15384598
21	0xbc0ba102	-0.008522274
22	0x3d42310d	0.04741006
23	0xbe721a0a	-0.23642746
24	0xbdbb550f	-0.09147083
25	0x3ddaf934	0.10692063
26	0xbd182cf6	-0.037152253
27	0x3c8aedcb	0.016959092
28	0x3edeaaad	0.4348959
29	0x3c2cf507	0.010556466
30	0xbe22c2b2	-0.15894583
31	0xbe468bd2	-0.19389275
32	0x3e45fa85	0.19333847
33	0xbd75eb35	-0.060038764
34	0xbd45a57d	-0.048253525
35	0x3e0605f6	0.13088211
36	0xbe000a96	-0.12504038
37	0x3cf00c80	0.029302835
38	0xbe0aaa31	-0.13541485
39	0xbe865c23	-0.2624217
40	0xbd2f7574	-0.04283662
41	0xbd732e27	-0.059370186
42	0x3cf8df36	0.030379873
43	0x3e569732	0.20956114
44	0xbd47d7a7	-0.048789646
45	0xbd81df46	-0.06341414
46	0x3d62859d	0.055303205
47	0xbd4aeca0	-0.04954207
48	0x3d6c85e8	0.05774489
49	0xbdbf47b6	-0.0933985
50	0xbe4588c4	-0.19290453
51	0xbdcc1772	-0.09965409
52	0xbea45cf7	-0.32102177
53	0xbe298f0b	-0.16558473
54	0xbe68b188	-0.22723973
55	0xbe08b8a9	-0.13351692
56	0x3e28b833	0.16476516
57	0xba0d9fd8	-0.0005402542
58	0xbdb38445	-0.08765463
59	0xbd2c7ef9	-0.042113278
60	0xbca8088a	-0.020511884
61	0xbcabac78	-0.020956263
62	0x3d940f5d	0.07229493
63	0x3ebefe18	0.37303233

fc2.weight f4 [32, 64]
0	0xbd7508fc	-0.05982302
1	0xbcd49416	-0.02594952
2	0xbd616ee5	-0.055037398
3	0xbe7f8163	-0.24951701
4	0x3d83a7a2	0.06428458
5	0xbde0bb59	-0.10973234
6	0xbe5aaabd	-0.21354194
7	0x3ed7eb1f	0.4217157
8	0xbe469cf4	-0.1939581
9	0xbd4d5f6a	-0.050139822
10	0xbe2f6da2	-0.17131665
11	0x3ebc55eb	0.367843
12	0x3d2be3ae	0.04196518
13	0xbc928073	-0.017883515
14	0xbe04c910	-0.12967324
15	0xbd1570a6	-0.036484383
16	0x3d1d5acb	0.038416665
17	0xbe9a0041	-0.3007832
18	0x3e43d11c	0.19122738
19	0xbe9a5e72	-0.3015018
20	0x3e2893ae	0.16462585
21	0xbda83e3f	-0.082149975
22	0x3ec0554c	0.37565076
23	0xbe9f097b	-0.3106192
24	0x3ce61daa	0.028090317
25	0xbdb74bec	-0.08950028
26	0xbe46c556	-0.19411215
27	0x3ea71b73	0.3263813
28	0xbcc9947a	-0.024606932
29	0xbe5a0733	-0.21291809
30	0x3e1929ec	0.14957398
31	0xbe88a070	-0.26684904
32	0x3e2997bb	0.16561787
33	0xbe89231b	-0.26784596
34	0xbd9c475c	-0.07630798
35	0xbe00d457	-0.12581001
36	0xbe9a9a07	-0.3019564
37	0xbeb61652	-0.35563904
38	0x3e32b925	0.1745344
39	0xbd7045e2	-0.058660395
40	0xbe8133ff	-0.25234982
41	0xbeb4586d	-0.35223714
42	0x3e86ca8f	0.26326415
43	0xbe67d5d2	-0.2264016
44	0x3dcfd02e	0.10147129
45	0xbf0440a5	-0.5166114
46	0xbe335dba	-0.17516223
47	0x3d02a36f	0.031894144
48	0x3e853f81	0.26025012
49	0xbd67319d	-0.0564438
50	0xbe1ab3a6	-0.15107593
51	0x3e45ab5e	0.19303653
52	0xbf06e05d	-0.526861
53	0xbeb9f4f0	-0.36319685
54	0x3cb06714	0.021533526
55	0xbe428607	-0.1899644
56	0x3e907c14	0.28219664
57	0xbd5522bb	-0.052035075
58	0x3dd5ef47	0.10446029
59	0x3e99505d	0.29944125
60	0x3b338110	0.002739016
61	0xbcf7f2c4	-0.030267127
62	0xbe2baa20	-0.16764116
63	0xbd9b9a71	-0.07597817
64	0xbe34989c	-0.17636341
65	0x3d514de4	0.051099673
66	0xbe787628	-0.24263823
67	0x3eb36831	0.3504043
68	0xbe22089e	-0.158236
69	0xbd2000cc	-0.03906326
70	0x3e87833d	0.26467314
71	0x3f09465f	0.53623
72	0xbea360c5	-0.31909767
73	0x3de5a36d	0.112128116
74	0xbed58846	-0.4170553
75	0xbbe39078	-0.0069447123
76	0xbec6d9f1	-0.3883815
77	0x3e68ade9	0.22722591
78	0xbcd4f76c	-0.025996886
79	0xbe9f2d5c	-0.31089294
80	0xbe863b72	-0.26217228
81	0x3c43a560	0.011941284
82	0xbe36a00f	-0.17834495
83	0x3e22edaa	0.15910974
84	0x3e4f4608	0.20241559
85	0x3e733b6f	0.23753141
86	0xbefd061c	-0.49418724
87	0x3d931a79	0.07182784
88	0x3dcefee9	0.10107214
89	0x3d03f41d	0.032215226
90	0xbe0115eb	-0.12606017
91	0x3d1738dc	0.03691946
92	0x3e3903cb	0.18067853
93	0xbee9e4ab	-0.45682272
94	0x3e06479f	0.13113259
95	0xbe491af9	-0.19639196
96	0x3e5884b0	0.21144366
97	0x3d9e4423	0.0772784
98	0x3e1c22da	0.1524767
99	0xbe488a31	-0.19583966
100	0x3e123a0f	0.1427996
101	0xbe091934	-0.1338852
102	0x3e2d372e	0.1691558
103	0xbebfe2ce	-0.37477726
104	0x3cb46ea3	0.022025412
105	0xbf334f96	-0.70043314
106	0xbd526163	-0.051362406
107	0x3db1a194	0.08673397
108	0xbee9bd2b	-0.45652136
109	0xbed82eae	-0.42223114
110	0xbdd7ab74	-0.10530749
111	0x3e533c96	0.2062858
112	0xbde35e51	-0.11101974
113	0xbe703526	-0.23457775
114	0x3dc928e8	0.098222554
115	0x3d415ec4	0.047209516
116	0xbf0c46e8	-0.54795694
117	0xbf0068ee	-0.5016011
118	0x3e0321f1	0.12805916
119	0x3c896569	0.016771989
120	0xbdbb49d3	-0.0914494
121	0xbeca2d7b	-0.39487824
122	0xbd975b02	-0.07390405
123	0x3ea5e7ec	0.32403505
124	0xbd953ef5	-0.07287399
125	0xbee5264c	-0.4475578
126	0x3ec38225	0.3818523
127	0xbe9615b8	-0.29313445
128	0x3e18fde7	0.14940606
129	0x3db22bdd	0.086997725
130	0xbd40ae23	-0.04704107
131	0xbebdf11a	-0.37098008
132	0xbd9ec19b	-0.07751771
133	0x3b8b3a1a	0.0042488696
134	0xbc95e4c1	-0.018297555
135	0xbdcf103c	-0.10110518
136	0x3ee9fcf6	0.45700806
137	0x3d1fdabb	0.039026957
138	0x3e1ac4d8	0.15114152
139	0xbe5950f7	-0.21222292
140	0xbdf0ff4a	-0.117674425
141	0x3d5c18ae	0.053734474
142	0x3e81d0f2	0.25354725
143	0x3cb10faa	0.021613915
144	0x3d44b444	0.048023477
145	0xbd0b3d42	-0.033993967
146	0xbe9dee12	-0.30845696
147	0x3e49675d	0.19668336
148	0x3e189b2c	0.14902943
149	0x3cd281d0	0.025696665
150	0xbbfa19b5	-0.007632459
151	0xbccc69f2	-0.024952862
152	0xbe4ceefa	-0.20013037
153	0x3e684ab9	0.22684754
154	0x3eb3b1a7	0.35096475
155	0xbdcb739a	-0.099341586
156	0xba85dc3b	-0.0010212729
157	0x3d047fc3	0.032348406
158	0x3bc6a2f8	0.006061908
159	0xbd59ea9a	-0.05320225
160	0xbf2226e8	-0.63340616
161	0x3d092cfc	0.033490166
162	0xbcee5232	-0.029091928
163	0x3db6982f	0.089157455
164	0xbb71c7cd	-0.0036892772
165	0x3f0f27c8	0.55920076
166	0x3d9acb5f	0.07558321
167	0xbc4c33cb	-0.01246352
168	0x3dc62fb5	0.09677068
169	0x3d73d795	0.059531767
170	0xbeae8d33	-0.340921
171	0xbf7e46d8	-0.9932685
172	0xbe809db3	-0.25120315
173	0xbca5d601	-0.020243647
174	0xbe8e7800	-0.27825928
175	0xbebd0f37	-0.3692567
176	0xbf050371	-0.51958376
177	0x3dde1021	0.1084292
178	0x3e7cc6aa	0.2468516
179	0xbd50252b	-0.050816696
180	0xbe4ff480	-0.20308113
181	0x3d82a14c	0.06378421
182	0xbddf070d	-0.10890017
183	0x3d8c185d	0.068405844
184	0xbdab2750	-0.08357108
185	0x3e151be9	0.14561428
186	0x3f253958	0.64540625
187	0xbd50e3b7	-0.050998416
188	0xbee6ede4	-0.4510337
189	0xbaf122bb	-0.0018397191
190	0x3e8a335b	0.26992306
191	0xbd17d55d	-0.037068713
192	0xbe102d29	-0.14079727
193	0xbe7d03b1	-0.2470844
194	0x3e7a1a34	0.24424058
195	0x3d706d26	0.058697842
196	0x3e1a6e7d	0.1508121
197	0x3de388c7	0.111100726
198	0xbec9b3c8	-0.39394975
199	0xbd4e80fe	-0.050415985
200	0xbdbd9a6c	-0.09257969
201	0xbe1e7ed5	-0.1547807
202	0xbe8e59f8	-0.27803016
203	0xbe1b858f	-0.15187667
204	0x3e325d55	0.17418416
205	0x3c3bdffb	0.011466975
206	0xbe4e2d51	-0.20134474
207	0xbe19eb5c	-0.15031189
208	0xbddecfeb	-0.10879501
209	0x3dd44b07	0.10365873
210	0x3e2c5ff5	0.1683348
211	0xbd56e279	-0.052462075
212	0x3edb0bf0	0.42782545
213	0xbc8097b9	-0.015697347
214	0x3e69c0bd	0.2282743
215	0x3f0685b9	0.52547795
216	0x3dfb5699	0.122723766
217	0xbd3da618	-0.046300977
218	0x3e99936a	0.2999528
219	0x3e284009	0.16430677
220	0x3d6c1282	0.057634838
221	0xbe6fbd15	-0.23411973
222	0x3d0772ff	0.033068653
223	0x3e10321c	0.14081615
224	0xbef8a641	-0.48564342
225	0xbd35dec3	-0.044401895
226	0x3ec44989	0.38337353
227	0x3d4e7f83	0.050414573
228	0xbe755504	-0.23958212
229	0xbec93fe2	-0.3930655
230	0x3e723b3a	0.23655406
231	0xbe299df7	-0.16564165
232	0x3d233031	0.03984088
233	0x3d562d05	0.052289028
234	0xbf06699b	-0.5250489
235	0xbed45d77	-0.41477558
236	0x3e5bd399	0.21467437
237	0x3e7c818c	0.24658793
238	0xbedcda6f	-0.43135402
239	0x3d4abee8	0.04949847
240	0x3e3c368a	0.1838018
241	0x3d0c2380	0.034213543
242	0x3e46be21	0.19408466
243	0xbd01308c	-0.03154044
244	0x3e57639f	0.21034096
245	0xbea40fbd	-0.32043257
246	0x3e173239	0.14765252
247	0xbd483066	-0.04887428
248	0x3d210704	0.03931333
249	0x3da2f237	0.07956355
250	0x3e7f38a7	0.24923955
251	0x3ea1905c	0.3155545
252	0xbc8f49ff	-0.017491339
253	0x3db2565d	0.08707879
254	0xbe3864bf	-0.18007182
255	0xbe1d251c	-0.15346187

fc2.bias f4 [32]
0	0xbb0fb4a9	-0.002192775
1	0xbdf8d11a	-0.12149258
2	0xbc7aa739	-0.015298658
3	0xbd84e3de	-0.06488775
4	0x3ee788be	0.45221514
5	0xbe31583c	-0.17318815
6	0xbd4984fd	-0.049199093
7	0xbdc1feab	-0.09472402
8	0xbbaa108d	-0.0051899613
9	0xbea51ee6	-0.32250136
10	0x3f1c140d	0.60968095
11	0x3db10dca	0.08645208
12	0xbd466778	-0.04843852
13	0x3c000699	0.007814073
14	0x3df899a9	0.12138683
15	0xbd9ecb8b	-0.077536665
16	0xbdb0ff4c	-0.08642444
17	0x3e9a07ad	0.3008398
18	0x3deb64a3	0.11493804
19	0xbd892d0d	-0.06698046
20	0xbe500ff2	-0.20318583
21	0x3eadd178	0.33948874
22	0x3f189dbb	0.5961568
23	0x3ccdaad5	0.025105873
24	0x3ed3019a	0.4121216
25	0xbda82c8e	-0.08211623
26	0xbb25f07d	-0.0025320344
27	0x3e13176d	0.14364405
28	0xbdbc5b77	-0.09197133
29	0x3dc9e71e	0.09858535
30	0x3dd451de	0.103671774
31	0x3f3f8ee8	0.7482743

fc3.weight f4 [4, 32]
0	0x3d90890a	0.07057388
1	0x3e9d05c8	0.30668473
2	0x3ee9f116	0.45691746
3	0x3d9f9393	0.077918194
4	0x3e4ba958	0.19888818
5	0xbe9533e7	-0.2914116
6	0x3dba1d26	0.09087591
7	0xbee0b2b6	-0.43886346
8	0xbf21673d	-0.63048154
9	0xbe84ba39	-0.25923327
10	0x3e8678b4	0.26263964
11	0x3ee6cefa	0.45079786
12	0xbe8fecfa	-0.28110486
13	0x3ecde420	0.40213108
14	0x3d0bc476	0.034122907
15	0x3d17441e	0.036930196
16	0x3ec748e6	0.38922805
17	0x3e30b47b	0.17256348
18	0x3f1c9d5c	0.6117761
19	0x3b29a3ec	0.0025885059
20	0xbe0f924c	-0.14020652
21	0x3ecc4fe2	0.39904696
22	0x3e5a69a3	0.2132936
23	0xbe4d7bd9	-0.20066775
24	0x3e8ce7d6	0.27520627
25	0xbe31f40b	-0.17378251
26	0xbe14cd6b	-0.14531486
27	0x3e6c12a5	0.23053987
28	0xbdf271ab	-0.11838087
29	0x3f0551fd	0.5207823
30	0xbda97df7	-0.08275979
31	0x3eb19641	0.34684947
32	0x3e6ad8ff	0.2293434
33	0x3ecaaff9	0.3958738
34	0x3f07b3d0	0.5300875
35	0x3de57a36	0.112049505
36	0x3e08acc4	0.13347155
37	0xbdd1a195	-0.102358975
38	0x3e147319	0.14497031
39	0xbd7f2cf1	-0.06229872
40	0xbd99e3aa	-0.075141266
41	0xbe4d9e85	-0.20080002
42	0x3e30eb7d	0.17277332
43	0x3f2f8172	0.6855689
44	0xbde5fdbf	-0.11230039
45	0xbd132af5	-0.03592964
46	0x3cc1eade	0.023671564
47	0xbd97f27f	-0.07419299
48	0x3eeb8b97	0.46004936
49	0x3e8d478c	0.27593648
50	0x3f37140d	0.7151497
51	0x3e2947ba	0.16531268
52	0xbeb2a155	-0.34888712
53	0x3f03eb18	0.515306
54	0x3e972873	0.29523048
55	0xbe634af9	-0.22196569
56	0x3e05426b	0.13013618
57	0xbe7b5b1a	-0.24546471
58	0x3d2443e0	0.040103793
59	0x3e9c7c88	0.3056376
60	0x3d89a732	0.06721343
61	0x3ea34e20	0.31895542
62	0x3d0d3ea7	0.034483578
63	0x3eb710dc	0.3575505
64	0x3ecdd601	0.40202335
65	0xbe0cb8a3	-0.13742308
66	0x3e764464	0.24049526
67	0xbe32b224	-0.17450768
68	0x3ed59b7b	0.41720185
69	0xbdebe8f6	-0.11519043
70	0xbe219db4	-0.15782815
71	0xbec845e6	-0.39115828
72	0xbda4f004	-0.08053592
73	0xbd7af8cf	-0.06127244
74	0x3e3698c4	0.17831713
75	0x3f3cc017	0.73730606
76	0xbea54f14	-0.32286894
77	0x3e7a4f2a	0.24444261
78	0x3eafe102	0.34351355
79	0xbf0c179a	-0.54723513
80	0x3df80326	0.121099755
81	0x3e5baab0	0.21451831
82	0x3f2f102f	0.6838407
83	0x3e7518ba	0.23935214
84	0xbed8d1e0	-0.42347622
85	0x3e5c2510	0.21498513
86	0x3e171ce4	0.14757115
87	0xbea45f44	-0.32103932
88	0x3e804aee	0.25057167
89	0xbef7b65d	-0.4838132
90	0x3dae7d79	0.08520026
91	0x3dbd573e	0.09245156
92	0x3e209bf8	0.15684497
93	0x3e597f07	0.21239863
94	0xbd66e9ba	-0.056375243
95	0x3ebd7d6f	0.3700976
96	0x3f1da04d	0.61572725
97	0x3eb3ffcf	0.35156104
98	0x3ea694e0	0.32535458
99	0x3e9dab7b	0.30794892
100	0x3e3555e6	0.17708549
101	0x3c9f4ae7	0.019444896
102	0xbdb91d9f	-0.09038853
103	0xbf327d2f	-0.69722265
104	0xbe8957fe	-0.26824945
105	0xbeeaf16f	-0.45887324
106	0x3ebc2ed9	0.36754492
107	0x3e494827	0.1965643
108	0x3cac118e	0.021004464
109	0xbe8a9721	-0.27068427
110	0x3d3b0e95	0.045668203
111	0x3e9638de	0.2934026
112	0x3f632ceb	0.88740414
113	0x3e4d24b9	0.2003354
114	0x3ed2022b	0.4101728
115	0x3e046c4b	0.12931935
116	0xbeba8725	-0.36431232
117	0x3ee844d8	0.45365024
118	0x3ea28ed3	0.3174959
119	0xbc128935	-0.0089438455
120	0x3e998d76	0.2999074
121	0xbdf6b4e0	-0.12046218
122	0x3d40a9f2	0.047037072
123	0xbe9b9c64	-0.30392754
124	0x3e44daa0	0.19224024
125	0x3eb264bc	0.3484248
126	0x3e889298	0.26674342
127	0x3e370d5e	0.17876193

fc3.bias f4 [4]
0	0x3f1a99c1	0.6039086
1	0x3ee901fe	0.45509332
2	0x3f06c956	0.52650964
3	0x3ec4d804	0.38446057
